…
      sampler {
        min_scale: 0.3
        max_scale: 1
        min_aspect_ratio: 0.5
        max_aspect_ratio: 2
      }
      sample_constraint {
        min_jaccard_overlap: 0.9
      }
      max_sample: 1
      max_trials: 50
    }
    batch_sampler {
      sampler {
        min_scale: 0.3
        max_scale: 1
        min_aspect_ratio: 0.5
        max_aspect_ratio: 2
      }
      sample_constraint {
        max_jaccard_overlap: 1
      }
      max_sample: 1
      max_trials: 50
    }
    label_map_file: "data/VOC0712/labelmap_voc.prototxt"
  }
}
layer {
  name: "conv1_1"
  type: "Convolution"
  bottom: "data"
  top: "conv1_1"
  param {
    lr_mult: 1
    decay_mult: 1
  }
  param {
    lr_mult: 2
    decay_mult: 0
  }
  convolution_param {
    num_output: 64
    pad: 1
    kernel_size: 3
    weight_filler {
      type: "xavier"
    }
    bias_filler {
      type: "constant"
      value: 0
    }
  }
}
layer {
  name: "relu1_1"
  type: "ReLU"
  bottom: "conv1_1"
  top: "conv1_1"
}
layer {
  name: "conv1_2"
  type: "Convolution"
  bottom: "conv1_1"
  top: "conv1_2"
  param {
    lr_mult: 1
    decay_mult: 1
  }
  param {
    lr_mult: 2
    decay_mult: 0
  }
  convolution_param {
    num_output: 64
    pad: 1
    kernel_size: 3
    weight_filler {
      type: "xavier"
    }
    bias_filler {
      type: "constant"
      value: 0
    }
  }
}
layer {
  name: "relu1_2"
  type: "ReLU"
  bottom: "conv1_2"
  top: "conv1_2"
}
layer {
  name: "pool1"
  type: "Pooling"
  bottom: "conv1_2"
  top: "pool1"
  pooling_param {
    pool: MAX
    kernel_size: 2
    stride: 2
  }
}
layer {
  name: "conv2_1"
  type: "Convolution"
  bottom: "pool1"
  top: "conv2_1"
  param {
    lr_mult: 1
    decay_mult: 1
  }
  param {
    lr_mult: 2
    decay_mult: 0
  }
  convolution_param {
    num_output: 128
    pad: 1
    kernel_size: 3
    weight_filler {
      type: "xavier"
    }
    bias_filler {
      type: "constant"
      value: 0
    }
  }
}
layer {
  name: "relu2_1"
  type: "ReLU"
  bottom: "conv2_1"
  top: "conv2_1"
}
layer {
  name: "conv2_2"
  type: "Convolution"
  bottom: "conv2_1"
  top: "conv2_2"
  param {
    lr_mult: 1
    decay_mult: 1
  }
  param {
    lr_mult: 2
    decay_mult: 0
  }
  convolution_param {
    num_output: 128
    pad: 1
    kernel_size: 3
    weight_filler {
      type: "xavier"
    }
    bias_filler {
      type: "constant"
      value: 0
    }
  }
}
layer {
  name: "relu2_2"
  type: "ReLU"
  bottom: "conv2_2"
  top: "conv2_2"
}
layer {
  name: "pool2"
  type: "Pooling"
  bottom: "conv2_2"
  top: "pool2"
  pooling_param {
    pool: MAX
    kernel_size: 2
    stride: 2
  }
}
layer {
  name: "conv3_1"
  type: "Convolution"
  bottom: "pool2"
  top: "conv3_1"
  param {
    lr_mult: 1
    decay_mult: 1
  }
  param {
    lr_mult: 2
    decay_mult: 0
  }
  convolution_param {
    num_output: 256
    pad: 1
    kernel_size: 3
    weight_filler {
      type: "xavier"
    }
    bias_filler {
      type: "constant"
      value: 0
    }
  }
}
layer {
  name: "relu3_1"
  type: "ReLU"
  bottom: "conv3_1"
  top: "conv3_1"
}
layer {
  name: "conv3_2"
  type: "Convolution"
  bottom: "conv3_1"
  top: "conv3_2"
  param {
    lr_mult: 1
    decay_mult: 1
  }
  param {
    lr_mult: 2
    decay_mult: 0
  }
  convolution_param {
    num_output: 256
    pad: 1
    kernel_size: 3
    weight_filler {
      type: "xavier"
    }
    bias_filler {
      type: "constant"
      value: 0
    }
  }
}
layer {
  name: "relu3_2"
  type: "ReLU"
  bottom: "conv3_2"
  top: "conv3_2"
}
layer {
  name: "conv3_3"
  type: "Convolution"
  bottom: "conv3_2"
  top: "conv3_3"
  param {
    lr_mult: 1
    decay_mult: 1
  }
  param {
    lr_mult: 2
    decay_mult: 0
  }
  convolution_param {
    num_output: 256
    pad: 1
    kernel_size: 3
    weight_filler {
      type: "xavier"
    }
    bias_filler {
      type: "constant"
      value: 0
    }
  }
}
layer {
  name: "relu3_3"
  type: "ReLU"
  bottom: "conv3_3"
  top: "conv3_3"
}
layer {
  name: "pool3"
  type: "Pooling"
  bottom: "conv3_3"
  top: "pool3"
  pooling_param {
    pool: MAX
    kernel_size: 2
    stride: 2
  }
}
layer {
  name: "conv4_1"
  type: "Convolution"
  bottom: "pool3"
  top: "conv4_1"
  param {
    lr_mult: 1
    decay_mult: 1
  }
  param {
    lr_mult: 2
    decay_mult: 0
  }
  convolution_param {
    num_output: 512
    pad: 1
    kernel_size: 3
    weight_filler {
      type: "xavier"
    }
    bias_filler {
      type: "constant"
      value: 0
    }
  }
}
layer {
  name: "relu4_1"
  type: "ReLU"
  bottom: "conv4_1"
  top: "conv4_1"
}
layer {
  name: "conv4_2"
  type: "Convolution"
  bottom: "conv4_1"
  top: "conv4_2"
  param {
    lr_mult: 1
    decay_mult: 1
  }
  param {
    lr_mult: 2
    decay_mult: 0
  }
  convolution_param {
    num_output: 512
    pad: 1
    kernel_size: 3
    weight_filler {
      type: "xavier"
    }
    bias_filler {
      type: "constant"
      value: 0
    }
  }
}
layer {
  name: "relu4_2"
  type: "ReLU"
  bottom: "conv4_2"
  top: "conv4_2"
}
layer {
  name: "conv4_3"
  type: "Convolution"
  bottom: "conv4_2"
  top: "conv4_3"
  param {
    lr_mult: 1
    decay_mult: 1
  }
  param {
    lr_mult: 2
    decay_mult: 0
  }
  convolution_param {
    num_output: 512
    pad: 1
    kernel_size: 3
    weight_filler {
      type: "xavier"
    }
    bias_filler {
      type: "constant"
      value: 0
    }
  }
}
layer {
  name: "relu4_3"
  type: "ReLU"
  bottom: "conv4_3"
  top: "conv4_3"
}
layer {
  name: "pool4"
  type: "Pooling"
  bottom: "conv4_3"
  top: "pool4"
  pooling_param {
    pool: MAX
    kernel_size: 2
    stride: 2
  }
}
layer {
  name: "conv5_1"
  type: "Convolution"
  bottom: "pool4"
  top: "conv5_1"
  param {
    lr_mult: 1
    decay_mult: 1
  }
  param {
    lr_mult: 2
    decay_mult: 0
  }
  convolution_param {
    num_output: 512
    pad: 1
    kernel_size: 3
    weight_filler {
      type: "xavier"
    }
    bias_filler {
      type: "constant"
      value: 0
    }
    dilation: 1
  }
}
layer {
  name: "relu5_1"
  type: "ReLU"
  bottom: "conv5_1"
  top: "conv5_1"
}
layer {
  name: "conv5_2"
  type: "Convolution"
  bottom: "conv5_1"
  top: "conv5_2"
  param {
    lr_mult: 1
    decay_mult: 1
  }
  param {
    lr_mult: 2
    decay_mult: 0
  }
  convolution_param {
    num_output: 512
    pad: 1
    kernel_size: 3
    weight_filler {
      type: "xavier"
    }
    bias_filler {
      type: "constant"
      value: 0
    }
    dilation: 1
  }
}
layer {
  name: "relu5_2"
  type: "ReLU"
  bottom: "conv5_2"
  top: "conv5_2"
}
layer {
  name: "conv5_3"
  type: "Convolution"
  bottom: "conv5_2"
  top: "conv5_3"
  param {
    lr_mult: 1
    decay_mult: 1
  }
  param {
    lr_mult: 2
    decay_mult: 0
  }
  convolution_param {
    num_output: 512
    pad: 1
    kernel_size: 3
    weight_filler {
      type: "xavier"
    }
    bias_filler {
      type: "constant"
      value: 0
    }
    dilation: 1
  }
}
layer {
  name: "relu5_3"
  type: "ReLU"
  bottom: "conv5_3"
  top: "conv5_3"
}
layer {
  name: "pool5"
  type: "Pooling"
  bottom: "conv5_3"
  top: "pool5"
  pooling_param {
    pool: MAX
    kernel_size: 3
    stride: 1
    pad: 1
  }
}
layer {
  name: "fc6"
  type: "Convolution"
  bottom: "pool5"
  top: "fc6"
  param {
    lr_mult: 1
    decay_mult: 1
  }
  param {
    lr_mult: 2
    decay_mult: 0
  }
  convolution_param {
    num_output: 1024
    pad: 6
    kernel_size: 3
    weight_filler {
      type: "xavier"
    }
    bias_filler {
      type: "constant"
      value: 0
    }
    dilation: 6
  }
}
layer {
  name: "relu6"
  type: "ReLU"
  bottom: "fc6"
  top: "fc6"
}
layer {
  name: "fc7"
  type: "Convolution"
  bottom: "fc6"
  top: "fc7"
  param {
    lr_mult: 1
    decay_mult: 1
  }
  param {
    lr_mult: 2
    decay_mult: 0
  }
  convolution_param {
    num_output: 1024
    kernel_size: 1
    weight_filler {
      type: "xavier"
    }
    bias_filler {
      type: "constant"
      value: 0
    }
  }
}
layer {
  name: "relu7"
  type: "ReLU"
  bottom: "fc7"
  top: "fc7"
}
layer {
  name: "conv6_1"
  type: "Convolution"
  bottom: "fc7"
  top: "conv6_1"
  param {
    lr_mult: 1
    decay_mult: 1
  }
  param {
    lr_mult: 2
    decay_mult: 0
  }
  convolution_param {
    num_output: 256
    pad: 0
    kernel_size: 1
    stride: 1
    weight_filler {
      type: "xavier"
    }
    bias_filler {
     type: "constant"
      value: 0
    }
  }
}
layer {
  name: "conv6_1_relu"
  type: "ReLU"
  bottom: "conv6_1"
  top: "conv6_1"
}
layer {
  name: "conv6_2"
  type: "Convolution"
  bottom: "conv6_1"
  top: "conv6_2"
  param {
    lr_mult: 1
    decay_mult: 1
  }
  param {
    lr_mult: 2
    decay_mult: 0
  }
  convolution_param {
    num_output: 512
    pad: 1
    kernel_size: 3
    stride: 2
    weight_filler {
      type: "xavier"
    }
    bias_filler {
      type: "constant"
      value: 0
    }
  }
}
layer {
  name: "conv6_2_relu"
  type: "ReLU"
  bottom: "conv6_2"
  top: "conv6_2"
}
layer {
  name: "conv7_1"
  type: "Convolution"
  bottom: "conv6_2"
  top: "conv7_1"
  param {
    lr_mult: 1
    decay_mult: 1
  }
  param {
    lr_mult: 2
    decay_mult: 0
  }
  convolution_param {
    num_output: 128
    pad: 0
    kernel_size: 1
    stride: 1
    weight_filler {
      type: "xavier"
    }
    bias_filler {
      type: "constant"
      value: 0
    }
  }
}
layer {
  name: "conv7_1_relu"
  type: "ReLU"
  bottom: "conv7_1"
  top: "conv7_1"
}
layer {
  name: "conv7_2"
  type: "Convolution"
  bottom: "conv7_1"
  top: "conv7_2"
  param {
    lr_mult: 1
    decay_mult: 1
  }
  param {
    lr_mult: 2
    decay_mult: 0
  }
  convolution_param {
    num_output: 256
    pad: 1
    kernel_size: 3
    stride: 2
    weight_filler {
      type: "xavier"
    }
    bias_filler {
      type: "constant"
      value: 0
    }
  }
}
layer {
  name: "conv7_2_relu"
  type: "ReLU"
  bottom: "conv7_2"
  top: "conv7_2"
}
layer {
  name: "conv8_1"
  type: "Convolution"
  bottom: "conv7_2"
  top: "conv8_1"
  param {
    lr_mult: 1
    decay_mult: 1
  }
  param {
    lr_mult: 2
    decay_mult: 0
  }
  convolution_param {
    num_output: 128
    pad: 0
    kernel_size: 1
    stride: 1
    weight_filler {
      type: "xavier"
    }
    bias_filler {
      type: "constant"
      value: 0
    }
  }
}
layer {
  name: "conv8_1_relu"
  type: "ReLU"
  bottom: "conv8_1"
  top: "conv8_1"
}
layer {
  name: "conv8_2"
  type: "Convolution"
  bottom: "conv8_1"
  top: "conv8_2"
  param {
    lr_mult: 1
    decay_mult: 1
  }
  param {
    lr_mult: 2
    decay_mult: 0
  }
  convolution_param {
    num_output: 256
    pad: 0
    kernel_size: 3
    stride: 1
    weight_filler {
      type: "xavier"
    }
    bias_filler {
      type: "constant"
      value: 0
    }
  }
}
layer {
  name: "conv8_2_relu"
  type: "ReLU"
  bottom: "conv8_2"
  top: "conv8_2"
}
layer {
  name: "conv9_1"
  type: "Convolution"
  bottom: "conv8_2"
  top: "conv9_1"
  param {
    lr_mult: 1
    decay_mult: 1
  }
  param {
    lr_mult: 2
    decay_mult: 0
  }
  convolution_param {
    num_output: 128
    pad: 0
    kernel_size: 1
    stride: 1
    weight_filler {
      type: "xavier"
    }
    bias_filler {
      type: "constant"
      value: 0
    }
  }
}
layer {
  name: "conv9_1_relu"
  type: "ReLU"
  bottom: "conv9_1"
  top: "conv9_1"
}
layer {
  name: "conv9_2"
  type: "Convolution"
  bottom: "conv9_1"
  top: "conv9_2"
  param {
    lr_mult: 1
    decay_mult: 1
  }
  param {
    lr_mult: 2
    decay_mult: 0
  }
  convolution_param {
    num_output: 256
    pad: 0
    kernel_size: 3
    stride: 1
    weight_filler {
      type: "xavier"
    }
    bias_filler {
      type: "constant"
      value: 0
    }
  }
}
layer {
  name: "conv9_2_relu"
  type: "ReLU"
  bottom: "conv9_2"
  top: "conv9_2"
}
layer {
  name: "conv4_3_norm"
  type: "Normalize"
  bottom: "conv4_3"
  top: "conv4_3_norm"
  norm_param {
    across_spatial: false
    scale_filler {
      type: "constant"
      value: 20
    }
    channel_shared: false
  }
}
layer {
  name: "conv4_3_norm_mbox_loc"
  type: "Convolution"
  bottom: "conv4_3_norm"
  top: "conv4_3_norm_mbox_loc"
  param {
    lr_mult: 1
    decay_mult: 1
  }
  param {
    lr_mult: 2
    decay_mult: 0
  }
  convolution_param {
    num_output: 16
    pad: 1
    kernel_size: 3
    stride: 1
    weight_filler {
      type: "xavier"
    }
    bias_filler {
      type: "constant"
      value: 0
    }
  }
}
layer {
  name: "conv4_3_norm_mbox_loc_perm"
  type: "Permute"
  bottom: "conv4_3_norm_mbox_loc"
  top: "conv4_3_norm_mbox_loc_perm"
  permute_param {
    order: 0
    order: 2
    order: 3
    order: 1
  }
}
layer {
  name: "conv4_3_norm_mbox_loc_flat"
  type: "Flatten"
  bottom: "conv4_3_norm_mbox_loc_perm"
  top: "conv4_3_norm_mbox_loc_flat"
  flatten_param {
    axis: 1
  }
}
layer {
  name: "conv4_3_norm_mbox_conf"
  type: "Convolution"
  bottom: "conv4_3_norm"
  top: "conv4_3_norm_mbox_conf"
  param {
    lr_mult: 1
    decay_mult: 1
  }
  param {
    lr_mult: 2
    decay_mult: 0
  }
  convolution_param {
    num_output: 84
    pad: 1
    kernel_size: 3
    stride: 1
    weight_filler {
      type: "xavier"
    }
    bias_filler {
      type: "constant"
      value: 0
    }
  }
}
layer {
  name: "conv4_3_norm_mbox_conf_perm"
  type: "Permute"
  bottom: "conv4_3_norm_mbox_conf"
  top: "conv4_3_norm_mbox_conf_perm"
  permute_param {
    order: 0
    order: 2
    order: 3
    order: 1
  }
}
layer {
  name: "conv4_3_norm_mbox_conf_flat"
  type: "Flatten"
  bottom: "conv4_3_norm_mbox_conf_perm"
  top: "conv4_3_norm_mbox_conf_flat"
  flatten_param {
    axis: 1
  }
}
layer {
  name: "conv4_3_norm_mbox_priorbox"
  type: "PriorBox"
  bottom: "conv4_3_norm"
  bottom: "data"
  top: "conv4_3_norm_mbox_priorbox"
  prior_box_param {
    min_size: 30
    max_size: 60
    aspect_ratio: 2
    flip: true
    clip: false
    variance: 0.1
    variance: 0.1
    variance: 0.2
    variance: 0.2
    step: 8
    offset: 0.5
  }
}
layer {
  name: "fc7_mbox_loc"
  type: "Convolution"
  bottom: "fc7"
  top: "fc7_mbox_loc"
  param {
    lr_mult: 1
    decay_mult: 1
  }
  param {
    lr_mult: 2
    decay_mult: 0
  }
  convolution_param {
    num_output: 24
    pad: 1
    kernel_size: 3
    stride: 1
    weight_filler {
      type: "xavier"
    }
    bias_filler {
      type: "constant"
      value: 0
    }
  }
}
layer {
  name: "fc7_mbox_loc_perm"
  type: "Permute"
  bottom: "fc7_mbox_loc"
  top: "fc7_mbox_loc_perm"
  permute_param {
    order: 0
    order: 2
    order: 3
    order: 1
  }
}
layer {
  name: "fc7_mbox_loc_flat"
  type: "Flatten"
  bottom: "fc7_mbox_loc_perm"
  top: "fc7_mbox_loc_flat"
  flatten_param {
    axis: 1
  }
}
layer {
  name: "fc7_mbox_conf"
  type: "Convolution"
  bottom: "fc7"
  top: "fc7_mbox_conf"
  param {
    lr_mult: 1
    decay_mult: 1
  }
  param {
    lr_mult: 2
    decay_mult: 0
  }
  convolution_param {
    num_output: 126
    pad: 1
    kernel_size: 3
    stride: 1
    weight_filler {
      type: "xavier"
    }
    bias_filler {
      type: "constant"
      value: 0
    }
  }
}
layer {
  name: "fc7_mbox_conf_perm"
  type: "Permute"
  bottom: "fc7_mbox_conf"
  top: "fc7_mbox_conf_perm"
  permute_param {
    order: 0
    order: 2
    order: 3
    order: 1
  }
}
layer {
  name: "fc7_mbox_conf_flat"
  type: "Flatten"
  bottom: "fc7_mbox_conf_perm"
  top: "fc7_mbox_conf_flat"
  flatten_param {
    axis: 1
  }
}
layer {
  name: "fc7_mbox_priorbox"
  type: "PriorBox"
  bottom: "fc7"
  bottom: "data"
  top: "fc7_mbox_priorbox"
  prior_box_param {
    min_size: 60
    max_size: 111
    aspect_ratio: 2
    aspect_ratio: 3
    flip: true
    clip: false
    variance: 0.1
    variance: 0.1
    variance: 0.2
    variance: 0.2
    step: 16
    offset: 0.5
  }
}
layer {
  name: "conv6_2_mbox_loc"
  type: "Convolution"
  bottom: "conv6_2"
  top: "conv6_2_mbox_loc"
  param {
    lr_mult: 1
    decay_mult: 1
  }
  param {
    lr_mult: 2
    decay_mult: 0
  }
  convolution_param {
    num_output: 24
    pad: 1
    kernel_size: 3
    stride: 1
    weight_filler {
      type: "xavier"
    }
    bias_filler {
      type: "constant"
      value: 0
    }
  }
}
layer {
  name: "conv6_2_mbox_loc_perm"
  type: "Permute"
  bottom: "conv6_2_mbox_loc"
  top: "conv6_2_mbox_loc_perm"
  permute_param {
    order: 0
    order: 2
    order: 3
    order: 1
  }
}
layer {
  name: "conv6_2_mbox_loc_flat"
  type: "Flatten"
  bottom: "conv6_2_mbox_loc_perm"
  top: "conv6_2_mbox_loc_flat"
  flatten_param {
    axis: 1
  }
}
layer {
  name: "conv6_2_mbox_conf"
  type: "Convolution"
  bottom: "conv6_2"
  top: "conv6_2_mbox_conf"
  param {
    lr_mult: 1
    decay_mult: 1
  }
  param {
    lr_mult: 2
    decay_mult: 0
  }
  convolution_param {
    num_output: 126
    pad: 1
    kernel_size: 3
    stride: 1
    weight_filler {
      type: "xavier"
    }
    bias_filler {
      type: "constant"
      value: 0
    }
  }
}
layer {
  name: "conv6_2_mbox_conf_perm"
  type: "Permute"
  bottom: "conv6_2_mbox_conf"
  top: "conv6_2_mbox_conf_perm"
  permute_param {
    order: 0
    order: 2
    order: 3
    order: 1
  }
}
layer {
  name: "conv6_2_mbox_conf_flat"
  type: "Flatten"
  bottom: "conv6_2_mbox_conf_perm"
  top: "conv6_2_mbox_conf_flat"
  flatten_param {
    axis: 1
  }
}
layer {
  name: "conv6_2_mbox_priorbox"
  type: "PriorBox"
  bottom: "conv6_2"
  bottom: "data"
  top: "conv6_2_mbox_priorbox"
  prior_box_param {
    min_size: 111
    max_size: 162
    aspect_ratio: 2
    aspect_ratio: 3
    flip: true
    clip: false
    variance: 0.1
    variance: 0.1
    variance: 0.2
    variance: 0.2
    step: 32
    offset: 0.5
  }
}
layer {
  name: "conv7_2_mbox_loc"
  type: "Convolution"
  bottom: "conv7_2"
  top: "conv7_2_mbox_loc"
  param {
    lr_mult: 1
    decay_mult: 1
  }
  param {
    lr_mult: 2
    decay_mult: 0
  }
  convolution_param {
    num_output: 24
    pad: 1
    kernel_size: 3
    stride: 1
    weight_filler {
      type: "xavier"
    }
    bias_filler {
      type: "constant"
      value: 0
    }
  }
}
layer {
  name: "conv7_2_mbox_loc_perm"
  type: "Permute"
  bottom: "conv7_2_mbox_loc"
  top: "conv7_2_mbox_loc_perm"
  permute_param {
    order: 0
    order: 2
    order: 3
    order: 1
  }
}
layer {
  name: "conv7_2_mbox_loc_flat"
  type: "Flatten"
  bottom: "conv7_2_mbox_loc_perm"
  top: "conv7_2_mbox_loc_flat"
  flatten_param {
    axis: 1
  }
}
layer {
  name: "conv7_2_mbox_conf"
  type: "Convolution"
  bottom: "conv7_2"
  top: "conv7_2_mbox_conf"
  param {
    lr_mult: 1
    decay_mult: 1
  }
  param {
    lr_mult: 2
    decay_mult: 0
  }
  convolution_param {
    num_output: 126
    pad: 1
    kernel_size: 3
    stride: 1
    weight_filler {
      type: "xavier"
    }
    bias_filler {
      type: "constant"
      value: 0
    }
  }
}
layer {
  name: "conv7_2_mbox_conf_perm"
  type: "Permute"
  bottom: "conv7_2_mbox_conf"
  top: "conv7_2_mbox_conf_perm"
  permute_param {
    order: 0
    order: 2
    order: 3
    order: 1
  }
}
layer {
  name: "conv7_2_mbox_conf_flat"
  type: "Flatten"
  bottom: "conv7_2_mbox_conf_perm"
  top: "conv7_2_mbox_conf_flat"
  flatten_param {
    axis: 1
  }
}
layer {
  name: "conv7_2_mbox_priorbox"
  type: "PriorBox"
  bottom: "conv7_2"
  bottom: "data"
  top: "conv7_2_mbox_priorbox"
  prior_box_param {
    min_size: 162
    max_size: 213
    aspect_ratio: 2
    aspect_ratio: 3
    flip: true
    clip: false
    variance: 0.1
    variance: 0.1
    variance: 0.2
    variance: 0.2
    step: 64
    offset: 0.5
  }
}
layer {
  name: "conv8_2_mbox_loc"
  type: "Convolution"
  bottom: "conv8_2"
  top: "conv8_2_mbox_loc"
  param {
    lr_mult: 1
    decay_mult: 1
  }
  param {
    lr_mult: 2
    decay_mult: 0
  }
  convolution_param {
    num_output: 16
    pad: 1
    kernel_size: 3
    stride: 1
    weight_filler {
      type: "xavier"
    }
    bias_filler {
      type: "constant"
      value: 0
    }
  }
}
layer {
  name: "conv8_2_mbox_loc_perm"
  type: "Permute"
  bottom: "conv8_2_mbox_loc"
  top: "conv8_2_mbox_loc_perm"
  permute_param {
    order: 0
    order: 2
    order: 3
    order: 1
  }
}
layer {
  name: "conv8_2_mbox_loc_flat"
  type: "Flatten"
  bottom: "conv8_2_mbox_loc_perm"
  top: "conv8_2_mbox_loc_flat"
  flatten_param {
    axis: 1
  }
}
layer {
  name: "conv8_2_mbox_conf"
  type: "Convolution"
  bottom: "conv8_2"
  top: "conv8_2_mbox_conf"
  param {
    lr_mult: 1
    decay_mult: 1
  }
  param {
    lr_mult: 2
    decay_mult: 0
  }
  convolution_param {
    num_output: 84
    pad: 1
    kernel_size: 3
    stride: 1
    weight_filler {
      type: "xavier"
    }
    bias_filler {
      type: "constant"
      value: 0
    }
  }
}
layer {
  name: "conv8_2_mbox_conf_perm"
  type: "Permute"
  bottom: "conv8_2_mbox_conf"
  top: "conv8_2_mbox_conf_perm"
  permute_param {
    order: 0
    order: 2
    order: 3
    order: 1
  }
}
layer {
  name: "conv8_2_mbox_conf_flat"
  type: "Flatten"
  bottom: "conv8_2_mbox_conf_perm"
  top: "conv8_2_mbox_conf_flat"
  flatten_param {
    axis: 1
  }
}
layer {
  name: "conv8_2_mbox_priorbox"
  type: "PriorBox"
  bottom: "conv8_2"
  bottom: "data"
  top: "conv8_2_mbox_priorbox"
  prior_box_param {
    min_size: 213
    max_size: 264
    aspect_ratio: 2
    flip: true
    clip: false
    variance: 0.1
    variance: 0.1
    variance: 0.2
    variance: 0.2
    step: 100
    offset: 0.5
  }
}
layer {
  name: "conv9_2_mbox_loc"
  type: "Convolution"
  bottom: "conv9_2"
  top: "conv9_2_mbox_loc"
  param {
    lr_mult: 1
    decay_mult: 1
  }
  param {
    lr_mult: 2
    decay_mult: 0
  }
  convolution_param {
    num_output: 16
    pad: 1
    kernel_size: 3
    stride: 1
    weight_filler {
      type: "xavier"
    }
    bias_filler {
      type: "constant"
      value: 0
    }
  }
}
layer {
  name: "conv9_2_mbox_loc_perm"
  type: "Permute"
  bottom: "conv9_2_mbox_loc"
  top: "conv9_2_mbox_loc_perm"
  permute_param {
    order: 0
    order: 2
    order: 3
    order: 1
  }
}
layer {
  name: "conv9_2_mbox_loc_flat"
  type: "Flatten"
  bottom: "conv9_2_mbox_loc_perm"
  top: "conv9_2_mbox_loc_flat"
  flatten_param {
    axis: 1
  }
}
layer {
  name: "conv9_2_mbox_conf"
  type: "Convolution"
  bottom: "conv9_2"
  top: "conv9_2_mbox_conf"
  param {
    lr_mult: 1
    decay_mult: 1
  }
  param {
    lr_mult: 2
    decay_mult: 0
  }
  convolution_param {
    num_output: 84
    pad: 1
    kernel_size: 3
    stride: 1
    weight_filler {
      type: "xavier"
    }
    bias_filler {
      type: "constant"
      value: 0
    }
  }
}
layer {
  name: "conv9_2_mbox_conf_perm"
  type: "Permute"
  bottom: "conv9_2_mbox_conf"
  top: "conv9_2_mbox_conf_perm"
  permute_param {
    order: 0
    order: 2
    order: 3
    order: 1
  }
}
layer {
  name: "conv9_2_mbox_conf_flat"
  type: "Flatten"
  bottom: "conv9_2_mbox_conf_perm"
  top: "conv9_2_mbox_conf_flat"
  flatten_param {
    axis: 1
  }
}
layer {
  name: "conv9_2_mbox_priorbox"
  type: "PriorBox"
  bottom: "conv9_2"
  bottom: "data"
  top: "conv9_2_mbox_priorbox"
  prior_box_param {
    min_size: 264
    max_size: 315
    aspect_ratio: 2
    flip: true
    clip: false
    variance: 0.1
    variance: 0.1
    variance: 0.2
    variance: 0.2
    step: 300
    offset: 0.5
  }
}
layer {
  name: "mbox_loc"
  type: "Concat"
  bottom: "conv4_3_norm_mbox_loc_flat"
  bottom: "fc7_mbox_loc_flat"
  bottom: "conv6_2_mbox_loc_flat"
  bottom: "conv7_2_mbox_loc_flat"
  bottom: "conv8_2_mbox_loc_flat"
  bottom: "conv9_2_mbox_loc_flat"
  top: "mbox_loc"
  concat_param {
    axis: 1
  }
}
layer {
  name: "mbox_conf"
  type: "Concat"
  bottom: "conv4_3_norm_mbox_conf_flat"
  bottom: "fc7_mbox_conf_flat"
  bottom: "conv6_2_mbox_conf_flat"
  bottom: "conv7_2_mbox_conf_flat"
  bottom: "conv8_2_mbox_conf_flat"
  bottom: "conv9_2_mbox_conf_flat"
  top: "mbox_conf"
  concat_param {
    axis: 1
  }
}
layer {
  name: "mbox_priorbox"
  type: "Concat"
  bottom: "conv4_3_norm_mbox_priorbox"
  bottom: "fc7_mbox_priorbox"
  bottom: "conv6_2_mbox_priorbox"
  bottom: "conv7_2_mbox_priorbox"
  bottom: "conv8_2_mbox_priorbox"
  bottom: "conv9_2_mbox_priorbox"
  top: "mbox_priorbox"
  concat_param {
    axis: 2
  }
}
layer {
  name: "mbox_loss"
  type: "MultiBoxLoss"
  bottom: "mbox_loc"
  bottom: "mbox_conf"
  bottom: "mbox_priorbox"
  bottom: "label"
  top: "mbox_loss"
  include {
    phase: TRAIN
  }
  propagate_down: true
  propagate_down: true
  propagate_down: false
  propagate_down: false
  loss_param {
    normalization: VALID
  }
  multibox_loss_param {
    loc_loss_type: SMOOTH_L1
    conf_loss_type: SOFTMAX
    loc_weight: 1
    num_classes: 21
    share_location: true
    match_type: PER_PREDICTION
    use_prior_for_matching: true
    background_label_id: 0
    use_difficult_gt: true
    neg_pos_ratio: 3
    neg_overlap: 0.5
    code_type: CENTER_SIZE
    ignore_cross_boundary_bbox: false
    mining_type: MAX_NEGATIVE
  }
}
I0403 21:23:16.632445 13700 layer_factory.hpp:77] Creating layer data
I0403 21:23:16.635785 13700 net.cpp:100] Creating Layer data
I0403 21:23:16.636427 13700 net.cpp:408] data -> data
I0403 21:23:16.637730 13700 net.cpp:408] data -> label
I0403 21:23:16.642825 13705 db_lmdb.cpp:35] Opened lmdb examples/VOC0712/VOC0712_trainval_lmdb
I0403 21:23:16.705492 13700 annotated_data_layer.cpp:62] output data size: 8,3,300,300
I0403 21:23:16.726141 13700 net.cpp:150] Setting up data
I0403 21:23:16.726251 13700 net.cpp:157] Top shape: 8 3 300 300 (2160000)
I0403 21:23:16.726265 13700 net.cpp:157] Top shape: 1 1 3 8 (24)
I0403 21:23:16.726270 13700 net.cpp:165] Memory required for data: 8640096
I0403 21:23:16.726294 13700 layer_factory.hpp:77] Creating layer data_data_0_split
I0403 21:23:16.727485 13700 net.cpp:100] Creating Layer data_data_0_split
I0403 21:23:16.727962 13700 net.cpp:434] data_data_0_split <- data
I0403 21:23:16.727990 13700 net.cpp:408] data_data_0_split -> data_data_0_split_0
I0403 21:23:16.728020 13700 net.cpp:408] data_data_0_split -> data_data_0_split_1
I0403 21:23:16.728029 13700 net.cpp:408] data_data_0_split -> data_data_0_split_2
I0403 21:23:16.728039 13700 net.cpp:408] data_data_0_split -> data_data_0_split_3
I0403 21:23:16.728045 13700 net.cpp:408] data_data_0_split -> data_data_0_split_4
I0403 21:23:16.728054 13700 net.cpp:408] data_data_0_split -> data_data_0_split_5
I0403 21:23:16.728060 13700 net.cpp:408] data_data_0_split -> data_data_0_split_6
I0403 21:23:16.728549 13700 net.cpp:150] Setting up data_data_0_split
I0403 21:23:16.728579 13700 net.cpp:157] Top shape: 8 3 300 300 (2160000)
I0403 21:23:16.728586 13700 net.cpp:157] Top shape: 8 3 300 300 (2160000)
I0403 21:23:16.728591 13700 net.cpp:157] Top shape: 8 3 300 300 (2160000)
I0403 21:23:16.728597 13700 net.cpp:157] Top shape: 8 3 300 300 (2160000)
I0403 21:23:16.728602 13700 net.cpp:157] Top shape: 8 3 300 300 (2160000)
I0403 21:23:16.728607 13700 net.cpp:157] Top shape: 8 3 300 300 (2160000)
I0403 21:23:16.728613 13700 net.cpp:157] Top shape: 8 3 300 300 (2160000)
I0403 21:23:16.728617 13700 net.cpp:165] Memory required for data: 69120096
I0403 21:23:16.728622 13700 layer_factory.hpp:77] Creating layer conv1_1
I0403 21:23:16.728683 13700 net.cpp:100] Creating Layer conv1_1
I0403 21:23:16.728706 13700 net.cpp:434] conv1_1 <- data_data_0_split_0
I0403 21:23:16.728715 13700 net.cpp:408] conv1_1 -> conv1_1
I0403 21:23:16.730760 13700 net.cpp:150] Setting up conv1_1
I0403 21:23:16.730790 13700 net.cpp:157] Top shape: 8 64 300 300 (46080000)
I0403 21:23:16.730796 13700 net.cpp:165] Memory required for data: 253440096
I0403 21:23:16.731618 13700 layer_factory.hpp:77] Creating layer relu1_1
I0403 21:23:16.731649 13700 net.cpp:100] Creating Layer relu1_1
I0403 21:23:16.731657 13700 net.cpp:434] relu1_1 <- conv1_1
I0403 21:23:16.731667 13700 net.cpp:395] relu1_1 -> conv1_1 (in-place)
I0403 21:23:16.731946 13700 net.cpp:150] Setting up relu1_1
I0403 21:23:16.731959 13700 net.cpp:157] Top shape: 8 64 300 300 (46080000)
I0403 21:23:16.731964 13700 net.cpp:165] Memory required for data: 437760096
I0403 21:23:16.731969 13700 layer_factory.hpp:77] Creating layer conv1_2
I0403 21:23:16.731984 13700 net.cpp:100] Creating Layer conv1_2
I0403 21:23:16.731989 13700 net.cpp:434] conv1_2 <- conv1_1
I0403 21:23:16.731998 13700 net.cpp:408] conv1_2 -> conv1_2
I0403 21:23:16.733114 13700 net.cpp:150] Setting up conv1_2
I0403 21:23:16.733129 13700 net.cpp:157] Top shape: 8 64 300 300 (46080000)
I0403 21:23:16.733135 13700 net.cpp:165] Memory required for data: 622080096
I0403 21:23:16.733145 13700 layer_factory.hpp:77] Creating layer relu1_2
I0403 21:23:16.733156 13700 net.cpp:100] Creating Layer relu1_2
I0403 21:23:16.733161 13700 net.cpp:434] relu1_2 <- conv1_2
I0403 21:23:16.733168 13700 net.cpp:395] relu1_2 -> conv1_2 (in-place)
I0403 21:23:16.733176 13700 net.cpp:150] Setting up relu1_2
I0403 21:23:16.733182 13700 net.cpp:157] Top shape: 8 64 300 300 (46080000)
I0403 21:23:16.733186 13700 net.cpp:165] Memory required for data: 806400096
I0403 21:23:16.733191 13700 layer_factory.hpp:77] Creating layer pool1
I0403 21:23:16.733201 13700 net.cpp:100] Creating Layer pool1
I0403 21:23:16.733206 13700 net.cpp:434] pool1 <- conv1_2
I0403 21:23:16.733212 13700 net.cpp:408] pool1 -> pool1
I0403 21:23:16.734159 13700 net.cpp:150] Setting up pool1
I0403 21:23:16.734174 13700 net.cpp:157] Top shape: 8 64 150 150 (11520000)
I0403 21:23:16.734179 13700 net.cpp:165] Memory required for data: 852480096
I0403 21:23:16.734184 13700 layer_factory.hpp:77] Creating layer conv2_1
I0403 21:23:16.734202 13700 net.cpp:100] Creating Layer conv2_1
I0403 21:23:16.734208 13700 net.cpp:434] conv2_1 <- pool1
I0403 21:23:16.734222 13700 net.cpp:408] conv2_1 -> conv2_1
I0403 21:23:16.734993 13700 net.cpp:150] Setting up conv2_1
I0403 21:23:16.735008 13700 net.cpp:157] Top shape: 8 128 150 150 (23040000)
I0403 21:23:16.735013 13700 net.cpp:165] Memory required for data: 944640096
I0403 21:23:16.735023 13700 layer_factory.hpp:77] Creating layer relu2_1
I0403 21:23:16.735033 13700 net.cpp:100] Creating Layer relu2_1
I0403 21:23:16.735038 13700 net.cpp:434] relu2_1 <- conv2_1
I0403 21:23:16.735046 13700 net.cpp:395] relu2_1 -> conv2_1 (in-place)
I0403 21:23:16.735054 13700 net.cpp:150] Setting up relu2_1
I0403 21:23:16.735059 13700 net.cpp:157] Top shape: 8 128 150 150 (23040000)
I0403 21:23:16.735064 13700 net.cpp:165] Memory required for data: 1036800096
I0403 21:23:16.735069 13700 layer_factory.hpp:77] Creating layer conv2_2
I0403 21:23:16.735080 13700 net.cpp:100] Creating Layer conv2_2
I0403 21:23:16.735085 13700 net.cpp:434] conv2_2 <- conv2_1
I0403 21:23:16.735092 13700 net.cpp:408] conv2_2 -> conv2_2
I0403 21:23:16.736999 13700 net.cpp:150] Setting up conv2_2
I0403 21:23:16.737015 13700 net.cpp:157] Top shape: 8 128 150 150 (23040000)
I0403 21:23:16.737020 13700 net.cpp:165] Memory required for data: 1128960096
I0403 21:23:16.737028 13700 layer_factory.hpp:77] Creating layer relu2_2
I0403 21:23:16.737036 13700 net.cpp:100] Creating Layer relu2_2
I0403 21:23:16.737041 13700 net.cpp:434] relu2_2 <- conv2_2
I0403 21:23:16.737051 13700 net.cpp:395] relu2_2 -> conv2_2 (in-place)
I0403 21:23:16.737059 13700 net.cpp:150] Setting up relu2_2
I0403 21:23:16.737066 13700 net.cpp:157] Top shape: 8 128 150 150 (23040000)
I0403 21:23:16.737071 13700 net.cpp:165] Memory required for data: 1221120096
I0403 21:23:16.737074 13700 layer_factory.hpp:77] Creating layer pool2
I0403 21:23:16.737082 13700 net.cpp:100] Creating Layer pool2
I0403 21:23:16.737085 13700 net.cpp:434] pool2 <- conv2_2
I0403 21:23:16.737093 13700 net.cpp:408] pool2 -> pool2
I0403 21:23:16.737133 13700 net.cpp:150] Setting up pool2
I0403 21:23:16.737143 13700 net.cpp:157] Top shape: 8 128 75 75 (5760000)
I0403 21:23:16.737149 13700 net.cpp:165] Memory required for data: 1244160096
I0403 21:23:16.737154 13700 layer_factory.hpp:77] Creating layer conv3_1
I0403 21:23:16.737165 13700 net.cpp:100] Creating Layer conv3_1
I0403 21:23:16.737170 13700 net.cpp:434] conv3_1 <- pool2
I0403 21:23:16.737180 13700 net.cpp:408] conv3_1 -> conv3_1
I0403 21:23:16.740834 13700 net.cpp:150] Setting up conv3_1
I0403 21:23:16.740851 13700 net.cpp:157] Top shape: 8 256 75 75 (11520000)
I0403 21:23:16.740856 13700 net.cpp:165] Memory required for data: 1290240096
I0403 21:23:16.740870 13700 layer_factory.hpp:77] Creating layer relu3_1
I0403 21:23:16.740880 13700 net.cpp:100] Creating Layer relu3_1
I0403 21:23:16.740885 13700 net.cpp:434] relu3_1 <- conv3_1
I0403 21:23:16.740890 13700 net.cpp:395] relu3_1 -> conv3_1 (in-place)
I0403 21:23:16.740900 13700 net.cpp:150] Setting up relu3_1
I0403 21:23:16.740906 13700 net.cpp:157] Top shape: 8 256 75 75 (11520000)
I0403 21:23:16.740909 13700 net.cpp:165] Memory required for data: 1336320096
I0403 21:23:16.740913 13700 layer_factory.hpp:77] Creating layer conv3_2
I0403 21:23:16.740926 13700 net.cpp:100] Creating Layer conv3_2
I0403 21:23:16.740931 13700 net.cpp:434] conv3_2 <- conv3_1
I0403 21:23:16.740941 13700 net.cpp:408] conv3_2 -> conv3_2
I0403 21:23:16.746986 13700 net.cpp:150] Setting up conv3_2
I0403 21:23:16.747017 13700 net.cpp:157] Top shape: 8 256 75 75 (11520000)
I0403 21:23:16.747023 13700 net.cpp:165] Memory required for data: 1382400096
I0403 21:23:16.747031 13700 layer_factory.hpp:77] Creating layer relu3_2
I0403 21:23:16.747040 13700 net.cpp:100] Creating Layer relu3_2
I0403 21:23:16.747045 13700 net.cpp:434] relu3_2 <- conv3_2
I0403 21:23:16.747051 13700 net.cpp:395] relu3_2 -> conv3_2 (in-place)
I0403 21:23:16.747058 13700 net.cpp:150] Setting up relu3_2
I0403 21:23:16.747064 13700 net.cpp:157] Top shape: 8 256 75 75 (11520000)
I0403 21:23:16.747068 13700 net.cpp:165] Memory required for data: 1428480096
I0403 21:23:16.747073 13700 layer_factory.hpp:77] Creating layer conv3_3
I0403 21:23:16.747092 13700 net.cpp:100] Creating Layer conv3_3
I0403 21:23:16.747098 13700 net.cpp:434] conv3_3 <- conv3_2
I0403 21:23:16.747108 13700 net.cpp:408] conv3_3 -> conv3_3
I0403 21:23:16.753523 13700 net.cpp:150] Setting up conv3_3
I0403 21:23:16.753540 13700 net.cpp:157] Top shape: 8 256 75 75 (11520000)
I0403 21:23:16.753545 13700 net.cpp:165] Memory required for data: 1474560096
I0403 21:23:16.753552 13700 layer_factory.hpp:77] Creating layer relu3_3
I0403 21:23:16.753561 13700 net.cpp:100] Creating Layer relu3_3
I0403 21:23:16.753567 13700 net.cpp:434] relu3_3 <- conv3_3
I0403 21:23:16.753574 13700 net.cpp:395] relu3_3 -> conv3_3 (in-place)
I0403 21:23:16.753582 13700 net.cpp:150] Setting up relu3_3
I0403 21:23:16.753588 13700 net.cpp:157] Top shape: 8 256 75 75 (11520000)
I0403 21:23:16.753592 13700 net.cpp:165] Memory required for data: 1520640096
I0403 21:23:16.753597 13700 layer_factory.hpp:77] Creating layer pool3
I0403 21:23:16.753602 13700 net.cpp:100] Creating Layer pool3
I0403 21:23:16.753607 13700 net.cpp:434] pool3 <- conv3_3
I0403 21:23:16.753615 13700 net.cpp:408] pool3 -> pool3
I0403 21:23:16.753654 13700 net.cpp:150] Setting up pool3
I0403 21:23:16.753664 13700 net.cpp:157] Top shape: 8 256 38 38 (2957312)
I0403 21:23:16.753669 13700 net.cpp:165] Memory required for data: 1532469344
I0403 21:23:16.753674 13700 layer_factory.hpp:77] Creating layer conv4_1
I0403 21:23:16.753684 13700 net.cpp:100] Creating Layer conv4_1
I0403 21:23:16.753700 13700 net.cpp:434] conv4_1 <- pool3
I0403 21:23:16.753707 13700 net.cpp:408] conv4_1 -> conv4_1
I0403 21:23:16.766371 13700 net.cpp:150] Setting up conv4_1
I0403 21:23:16.766392 13700 net.cpp:157] Top shape: 8 512 38 38 (5914624)
I0403 21:23:16.766397 13700 net.cpp:165] Memory required for data: 1556127840
I0403 21:23:16.766407 13700 layer_factory.hpp:77] Creating layer relu4_1
I0403 21:23:16.766415 13700 net.cpp:100] Creating Layer relu4_1
I0403 21:23:16.766422 13700 net.cpp:434] relu4_1 <- conv4_1
I0403 21:23:16.766430 13700 net.cpp:395] relu4_1 -> conv4_1 (in-place)
I0403 21:23:16.766440 13700 net.cpp:150] Setting up relu4_1
I0403 21:23:16.766446 13700 net.cpp:157] Top shape: 8 512 38 38 (5914624)
I0403 21:23:16.766450 13700 net.cpp:165] Memory required for data: 1579786336
I0403 21:23:16.766455 13700 layer_factory.hpp:77] Creating layer conv4_2
I0403 21:23:16.766469 13700 net.cpp:100] Creating Layer conv4_2
I0403 21:23:16.766474 13700 net.cpp:434] conv4_2 <- conv4_1
I0403 21:23:16.766480 13700 net.cpp:408] conv4_2 -> conv4_2
I0403 21:23:16.793805 13700 net.cpp:150] Setting up conv4_2
I0403 21:23:16.793850 13700 net.cpp:157] Top shape: 8 512 38 38 (5914624)
I0403 21:23:16.793855 13700 net.cpp:165] Memory required for data: 1603444832
I0403 21:23:16.793874 13700 layer_factory.hpp:77] Creating layer relu4_2
I0403 21:23:16.793889 13700 net.cpp:100] Creating Layer relu4_2
I0403 21:23:16.793895 13700 net.cpp:434] relu4_2 <- conv4_2
I0403 21:23:16.793903 13700 net.cpp:395] relu4_2 -> conv4_2 (in-place)
I0403 21:23:16.793915 13700 net.cpp:150] Setting up relu4_2
I0403 21:23:16.793920 13700 net.cpp:157] Top shape: 8 512 38 38 (5914624)
I0403 21:23:16.793923 13700 net.cpp:165] Memory required for data: 1627103328
I0403 21:23:16.793928 13700 layer_factory.hpp:77] Creating layer conv4_3
I0403 21:23:16.793941 13700 net.cpp:100] Creating Layer conv4_3
I0403 21:23:16.793946 13700 net.cpp:434] conv4_3 <- conv4_2
I0403 21:23:16.793956 13700 net.cpp:408] conv4_3 -> conv4_3
I0403 21:23:16.824466 13700 net.cpp:150] Setting up conv4_3
I0403 21:23:16.824514 13700 net.cpp:157] Top shape: 8 512 38 38 (5914624)
I0403 21:23:16.824520 13700 net.cpp:165] Memory required for data: 1650761824
I0403 21:23:16.824532 13700 layer_factory.hpp:77] Creating layer relu4_3
I0403 21:23:16.824543 13700 net.cpp:100] Creating Layer relu4_3
I0403 21:23:16.824550 13700 net.cpp:434] relu4_3 <- conv4_3
I0403 21:23:16.824563 13700 net.cpp:395] relu4_3 -> conv4_3 (in-place)
I0403 21:23:16.824574 13700 net.cpp:150] Setting up relu4_3
I0403 21:23:16.824581 13700 net.cpp:157] Top shape: 8 512 38 38 (5914624)
I0403 21:23:16.824599 13700 net.cpp:165] Memory required for data: 1674420320
I0403 21:23:16.824604 13700 layer_factory.hpp:77] Creating layer conv4_3_relu4_3_0_split
I0403 21:23:16.824611 13700 net.cpp:100] Creating Layer conv4_3_relu4_3_0_split
I0403 21:23:16.824616 13700 net.cpp:434] conv4_3_relu4_3_0_split <- conv4_3
I0403 21:23:16.824623 13700 net.cpp:408] conv4_3_relu4_3_0_split -> conv4_3_relu4_3_0_split_0
I0403 21:23:16.824635 13700 net.cpp:408] conv4_3_relu4_3_0_split -> conv4_3_relu4_3_0_split_1
I0403 21:23:16.824676 13700 net.cpp:150] Setting up conv4_3_relu4_3_0_split
I0403 21:23:16.824684 13700 net.cpp:157] Top shape: 8 512 38 38 (5914624)
I0403 21:23:16.824690 13700 net.cpp:157] Top shape: 8 512 38 38 (5914624)
I0403 21:23:16.824695 13700 net.cpp:165] Memory required for data: 1721737312
I0403 21:23:16.824700 13700 layer_factory.hpp:77] Creating layer pool4
I0403 21:23:16.824712 13700 net.cpp:100] Creating Layer pool4
I0403 21:23:16.824717 13700 net.cpp:434] pool4 <- conv4_3_relu4_3_0_split_0
I0403 21:23:16.824724 13700 net.cpp:408] pool4 -> pool4
I0403 21:23:16.824771 13700 net.cpp:150] Setting up pool4
I0403 21:23:16.824789 13700 net.cpp:157] Top shape: 8 512 19 19 (1478656)
I0403 21:23:16.824798 13700 net.cpp:165] Memory required for data: 1727651936
I0403 21:23:16.824810 13700 layer_factory.hpp:77] Creating layer conv5_1
I0403 21:23:16.824846 13700 net.cpp:100] Creating Layer conv5_1
I0403 21:23:16.824877 13700 net.cpp:434] conv5_1 <- pool4
I0403 21:23:16.824920 13700 net.cpp:408] conv5_1 -> conv5_1
I0403 21:23:16.857444 13700 net.cpp:150] Setting up conv5_1
I0403 21:23:16.857930 13700 net.cpp:157] Top shape: 8 512 19 19 (1478656)
I0403 21:23:16.857954 13700 net.cpp:165] Memory required for data: 1733566560
I0403 21:23:16.857969 13700 layer_factory.hpp:77] Creating layer relu5_1
I0403 21:23:16.857990 13700 net.cpp:100] Creating Layer relu5_1
I0403 21:23:16.857997 13700 net.cpp:434] relu5_1 <- conv5_1
I0403 21:23:16.858007 13700 net.cpp:395] relu5_1 -> conv5_1 (in-place)
I0403 21:23:16.858021 13700 net.cpp:150] Setting up relu5_1
I0403 21:23:16.858026 13700 net.cpp:157] Top shape: 8 512 19 19 (1478656)
I0403 21:23:16.858031 13700 net.cpp:165] Memory required for data: 1739481184
I0403 21:23:16.858036 13700 layer_factory.hpp:77] Creating layer conv5_2
I0403 21:23:16.858050 13700 net.cpp:100] Creating Layer conv5_2
I0403 21:23:16.858055 13700 net.cpp:434] conv5_2 <- conv5_1
I0403 21:23:16.858064 13700 net.cpp:408] conv5_2 -> conv5_2
I0403 21:23:16.890297 13700 net.cpp:150] Setting up conv5_2
I0403 21:23:16.890357 13700 net.cpp:157] Top shape: 8 512 19 19 (1478656)
I0403 21:23:16.890365 13700 net.cpp:165] Memory required for data: 1745395808
I0403 21:23:16.890377 13700 layer_factory.hpp:77] Creating layer relu5_2
I0403 21:23:16.890393 13700 net.cpp:100] Creating Layer relu5_2
I0403 21:23:16.890415 13700 net.cpp:434] relu5_2 <- conv5_2
I0403 21:23:16.890429 13700 net.cpp:395] relu5_2 -> conv5_2 (in-place)
I0403 21:23:16.890442 13700 net.cpp:150] Setting up relu5_2
I0403 21:23:16.890450 13700 net.cpp:157] Top shape: 8 512 19 19 (1478656)
I0403 21:23:16.890453 13700 net.cpp:165] Memory required for data: 1751310432
I0403 21:23:16.890458 13700 layer_factory.hpp:77] Creating layer conv5_3
I0403 21:23:16.891765 13700 net.cpp:100] Creating Layer conv5_3
I0403 21:23:16.891803 13700 net.cpp:434] conv5_3 <- conv5_2
I0403 21:23:16.891816 13700 net.cpp:408] conv5_3 -> conv5_3
I0403 21:23:16.932195 13700 net.cpp:150] Setting up conv5_3
I0403 21:23:16.932260 13700 net.cpp:157] Top shape: 8 512 19 19 (1478656)
I0403 21:23:16.932265 13700 net.cpp:165] Memory required for data: 1757225056
I0403 21:23:16.932277 13700 layer_factory.hpp:77] Creating layer relu5_3
I0403 21:23:16.932296 13700 net.cpp:100] Creating Layer relu5_3
I0403 21:23:16.932303 13700 net.cpp:434] relu5_3 <- conv5_3
I0403 21:23:16.932317 13700 net.cpp:395] relu5_3 -> conv5_3 (in-place)
I0403 21:23:16.932328 13700 net.cpp:150] Setting up relu5_3
I0403 21:23:16.932340 13700 net.cpp:157] Top shape: 8 512 19 19 (1478656)
I0403 21:23:16.932359 13700 net.cpp:165] Memory required for data: 1763139680
I0403 21:23:16.932365 13700 layer_factory.hpp:77] Creating layer pool5
I0403 21:23:16.932374 13700 net.cpp:100] Creating Layer pool5
I0403 21:23:16.932379 13700 net.cpp:434] pool5 <- conv5_3
I0403 21:23:16.932389 13700 net.cpp:408] pool5 -> pool5
I0403 21:23:16.932445 13700 net.cpp:150] Setting up pool5
I0403 21:23:16.932471 13700 net.cpp:157] Top shape: 8 512 19 19 (1478656)
I0403 21:23:16.932487 13700 net.cpp:165] Memory required for data: 1769054304
I0403 21:23:16.932503 13700 layer_factory.hpp:77] Creating layer fc6
I0403 21:23:16.932559 13700 net.cpp:100] Creating Layer fc6
I0403 21:23:16.932571 13700 net.cpp:434] fc6 <- pool5
I0403 21:23:16.932585 13700 net.cpp:408] fc6 -> fc6
I0403 21:23:16.998158 13700 net.cpp:150] Setting up fc6
I0403 21:23:16.998220 13700 net.cpp:157] Top shape: 8 1024 19 19 (2957312)
I0403 21:23:16.998246 13700 net.cpp:165] Memory required for data: 1780883552
I0403 21:23:16.998278 13700 layer_factory.hpp:77] Creating layer relu6
I0403 21:23:16.998323 13700 net.cpp:100] Creating Layer relu6
I0403 21:23:16.998342 13700 net.cpp:434] relu6 <- fc6
I0403 21:23:16.998355 13700 net.cpp:395] relu6 -> fc6 (in-place)
I0403 21:23:16.998369 13700 net.cpp:150] Setting up relu6
I0403 21:23:16.998378 13700 net.cpp:157] Top shape: 8 1024 19 19 (2957312)
I0403 21:23:16.998383 13700 net.cpp:165] Memory required for data: 1792712800
I0403 21:23:16.998387 13700 layer_factory.hpp:77] Creating layer fc7
I0403 21:23:16.998404 13700 net.cpp:100] Creating Layer fc7
I0403 21:23:16.998409 13700 net.cpp:434] fc7 <- fc6
I0403 21:23:16.998417 13700 net.cpp:408] fc7 -> fc7
I0403 21:23:17.021898 13700 net.cpp:150] Setting up fc7
I0403 21:23:17.022433 13700 net.cpp:157] Top shape: 8 1024 19 19 (2957312)
I0403 21:23:17.022455 13700 net.cpp:165] Memory required for data: 1804542048
I0403 21:23:17.022471 13700 layer_factory.hpp:77] Creating layer relu7
I0403 21:23:17.022485 13700 net.cpp:100] Creating Layer relu7
I0403 21:23:17.022492 13700 net.cpp:434] relu7 <- fc7
I0403 21:23:17.022503 13700 net.cpp:395] relu7 -> fc7 (in-place)
I0403 21:23:17.022526 13700 net.cpp:150] Setting up relu7
I0403 21:23:17.022531 13700 net.cpp:157] Top shape: 8 1024 19 19 (2957312)
I0403 21:23:17.022536 13700 net.cpp:165] Memory required for data: 1816371296
I0403 21:23:17.022541 13700 layer_factory.hpp:77] Creating layer fc7_relu7_0_split
I0403 21:23:17.022548 13700 net.cpp:100] Creating Layer fc7_relu7_0_split
I0403 21:23:17.022553 13700 net.cpp:434] fc7_relu7_0_split <- fc7
I0403 21:23:17.022560 13700 net.cpp:408] fc7_relu7_0_split -> fc7_relu7_0_split_0
I0403 21:23:17.022568 13700 net.cpp:408] fc7_relu7_0_split -> fc7_relu7_0_split_1
I0403 21:23:17.022584 13700 net.cpp:408] fc7_relu7_0_split -> fc7_relu7_0_split_2
I0403 21:23:17.022593 13700 net.cpp:408] fc7_relu7_0_split -> fc7_relu7_0_split_3
I0403 21:23:17.022704 13700 net.cpp:150] Setting up fc7_relu7_0_split
I0403 21:23:17.022847 13700 net.cpp:157] Top shape: 8 1024 19 19 (2957312)
I0403 21:23:17.022881 13700 net.cpp:157] Top shape: 8 1024 19 19 (2957312)
I0403 21:23:17.022886 13700 net.cpp:157] Top shape: 8 1024 19 19 (2957312)
I0403 21:23:17.022891 13700 net.cpp:157] Top shape: 8 1024 19 19 (2957312)
I0403 21:23:17.022895 13700 net.cpp:165] Memory required for data: 1863688288
I0403 21:23:17.022900 13700 layer_factory.hpp:77] Creating layer conv6_1
I0403 21:23:17.022930 13700 net.cpp:100] Creating Layer conv6_1
I0403 21:23:17.022936 13700 net.cpp:434] conv6_1 <- fc7_relu7_0_split_0
I0403 21:23:17.022945 13700 net.cpp:408] conv6_1 -> conv6_1
I0403 21:23:17.026033 13700 net.cpp:150] Setting up conv6_1
I0403 21:23:17.026065 13700 net.cpp:157] Top shape: 8 256 19 19 (739328)
I0403 21:23:17.026072 13700 net.cpp:165] Memory required for data: 1866645600
I0403 21:23:17.026080 13700 layer_factory.hpp:77] Creating layer conv6_1_relu
I0403 21:23:17.026091 13700 net.cpp:100] Creating Layer conv6_1_relu
I0403 21:23:17.026098 13700 net.cpp:434] conv6_1_relu <- conv6_1
I0403 21:23:17.026104 13700 net.cpp:395] conv6_1_relu -> conv6_1 (in-place)
I0403 21:23:17.026123 13700 net.cpp:150] Setting up conv6_1_relu
I0403 21:23:17.026129 13700 net.cpp:157] Top shape: 8 256 19 19 (739328)
I0403 21:23:17.026134 13700 net.cpp:165] Memory required for data: 1869602912
I0403 21:23:17.026139 13700 layer_factory.hpp:77] Creating layer conv6_2
I0403 21:23:17.026151 13700 net.cpp:100] Creating Layer conv6_2
I0403 21:23:17.026156 13700 net.cpp:434] conv6_2 <- conv6_1
I0403 21:23:17.026165 13700 net.cpp:408] conv6_2 -> conv6_2
I0403 21:23:17.044327 13700 net.cpp:150] Setting up conv6_2
I0403 21:23:17.044384 13700 net.cpp:157] Top shape: 8 512 10 10 (409600)
I0403 21:23:17.044389 13700 net.cpp:165] Memory required for data: 1871241312
I0403 21:23:17.044416 13700 layer_factory.hpp:77] Creating layer conv6_2_relu
I0403 21:23:17.044430 13700 net.cpp:100] Creating Layer conv6_2_relu
I0403 21:23:17.044437 13700 net.cpp:434] conv6_2_relu <- conv6_2
I0403 21:23:17.044447 13700 net.cpp:395] conv6_2_relu -> conv6_2 (in-place)
I0403 21:23:17.044458 13700 net.cpp:150] Setting up conv6_2_relu
I0403 21:23:17.044464 13700 net.cpp:157] Top shape: 8 512 10 10 (409600)
I0403 21:23:17.044469 13700 net.cpp:165] Memory required for data: 1872879712
I0403 21:23:17.044473 13700 layer_factory.hpp:77] Creating layer conv6_2_conv6_2_relu_0_split
I0403 21:23:17.044481 13700 net.cpp:100] Creating Layer conv6_2_conv6_2_relu_0_split
I0403 21:23:17.044486 13700 net.cpp:434] conv6_2_conv6_2_relu_0_split <- conv6_2
I0403 21:23:17.044497 13700 net.cpp:408] conv6_2_conv6_2_relu_0_split -> conv6_2_conv6_2_relu_0_split_0
I0403 21:23:17.044507 13700 net.cpp:408] conv6_2_conv6_2_relu_0_split -> conv6_2_conv6_2_relu_0_split_1
I0403 21:23:17.044513 13700 net.cpp:408] conv6_2_conv6_2_relu_0_split -> conv6_2_conv6_2_relu_0_split_2
I0403 21:23:17.044522 13700 net.cpp:408] conv6_2_conv6_2_relu_0_split -> conv6_2_conv6_2_relu_0_split_3
I0403 21:23:17.044605 13700 net.cpp:150] Setting up conv6_2_conv6_2_relu_0_split
I0403 21:23:17.044621 13700 net.cpp:157] Top shape: 8 512 10 10 (409600)
I0403 21:23:17.044627 13700 net.cpp:157] Top shape: 8 512 10 10 (409600)
I0403 21:23:17.044646 13700 net.cpp:157] Top shape: 8 512 10 10 (409600)
I0403 21:23:17.044651 13700 net.cpp:157] Top shape: 8 512 10 10 (409600)
I0403 21:23:17.044656 13700 net.cpp:165] Memory required for data: 1879433312
I0403 21:23:17.044659 13700 layer_factory.hpp:77] Creating layer conv7_1
I0403 21:23:17.044674 13700 net.cpp:100] Creating Layer conv7_1
I0403 21:23:17.044680 13700 net.cpp:434] conv7_1 <- conv6_2_conv6_2_relu_0_split_0
I0403 21:23:17.044688 13700 net.cpp:408] conv7_1 -> conv7_1
I0403 21:23:17.045397 13700 net.cpp:150] Setting up conv7_1
I0403 21:23:17.045423 13700 net.cpp:157] Top shape: 8 128 10 10 (102400)
I0403 21:23:17.045428 13700 net.cpp:165] Memory required for data: 1879842912
I0403 21:23:17.045435 13700 layer_factory.hpp:77] Creating layer conv7_1_relu
I0403 21:23:17.045442 13700 net.cpp:100] Creating Layer conv7_1_relu
I0403 21:23:17.045450 13700 net.cpp:434] conv7_1_relu <- conv7_1
I0403 21:23:17.045457 13700 net.cpp:395] conv7_1_relu -> conv7_1 (in-place)
I0403 21:23:17.045465 13700 net.cpp:150] Setting up conv7_1_relu
I0403 21:23:17.045471 13700 net.cpp:157] Top shape: 8 128 10 10 (102400)
I0403 21:23:17.045475 13700 net.cpp:165] Memory required for data: 1880252512
I0403 21:23:17.045480 13700 layer_factory.hpp:77] Creating layer conv7_2
I0403 21:23:17.045491 13700 net.cpp:100] Creating Layer conv7_2
I0403 21:23:17.045496 13700 net.cpp:434] conv7_2 <- conv7_1
I0403 21:23:17.045505 13700 net.cpp:408] conv7_2 -> conv7_2
I0403 21:23:17.048501 13700 net.cpp:150] Setting up conv7_2
I0403 21:23:17.048528 13700 net.cpp:157] Top shape: 8 256 5 5 (51200)
I0403 21:23:17.048533 13700 net.cpp:165] Memory required for data: 1880457312
I0403 21:23:17.048542 13700 layer_factory.hpp:77] Creating layer conv7_2_relu
I0403 21:23:17.048549 13700 net.cpp:100] Creating Layer conv7_2_relu
I0403 21:23:17.048554 13700 net.cpp:434] conv7_2_relu <- conv7_2
I0403 21:23:17.048562 13700 net.cpp:395] conv7_2_relu -> conv7_2 (in-place)
I0403 21:23:17.048569 13700 net.cpp:150] Setting up conv7_2_relu
I0403 21:23:17.048586 13700 net.cpp:157] Top shape: 8 256 5 5 (51200)
I0403 21:23:17.048590 13700 net.cpp:165] Memory required for data: 1880662112
I0403 21:23:17.048595 13700 layer_factory.hpp:77] Creating layer conv7_2_conv7_2_relu_0_split
I0403 21:23:17.048602 13700 net.cpp:100] Creating Layer conv7_2_conv7_2_relu_0_split
I0403 21:23:17.048606 13700 net.cpp:434] conv7_2_conv7_2_relu_0_split <- conv7_2
I0403 21:23:17.048614 13700 net.cpp:408] conv7_2_conv7_2_relu_0_split -> conv7_2_conv7_2_relu_0_split_0
I0403 21:23:17.048621 13700 net.cpp:408] conv7_2_conv7_2_relu_0_split -> conv7_2_conv7_2_relu_0_split_1
I0403 21:23:17.048629 13700 net.cpp:408] conv7_2_conv7_2_relu_0_split -> conv7_2_conv7_2_relu_0_split_2
I0403 21:23:17.048637 13700 net.cpp:408] conv7_2_conv7_2_relu_0_split -> conv7_2_conv7_2_relu_0_split_3
I0403 21:23:17.048717 13700 net.cpp:150] Setting up conv7_2_conv7_2_relu_0_split
I0403 21:23:17.048727 13700 net.cpp:157] Top shape: 8 256 5 5 (51200)
I0403 21:23:17.048732 13700 net.cpp:157] Top shape: 8 256 5 5 (51200)
I0403 21:23:17.048738 13700 net.cpp:157] Top shape: 8 256 5 5 (51200)
I0403 21:23:17.048743 13700 net.cpp:157] Top shape: 8 256 5 5 (51200)
I0403 21:23:17.048746 13700 net.cpp:165] Memory required for data: 1881481312
I0403 21:23:17.048751 13700 layer_factory.hpp:77] Creating layer conv8_1
I0403 21:23:17.048775 13700 net.cpp:100] Creating Layer conv8_1
I0403 21:23:17.048781 13700 net.cpp:434] conv8_1 <- conv7_2_conv7_2_relu_0_split_0
I0403 21:23:17.048791 13700 net.cpp:408] conv8_1 -> conv8_1
I0403 21:23:17.049247 13700 net.cpp:150] Setting up conv8_1
I0403 21:23:17.049259 13700 net.cpp:157] Top shape: 8 128 5 5 (25600)
I0403 21:23:17.049276 13700 net.cpp:165] Memory required for data: 1881583712
I0403 21:23:17.049284 13700 layer_factory.hpp:77] Creating layer conv8_1_relu
I0403 21:23:17.049291 13700 net.cpp:100] Creating Layer conv8_1_relu
I0403 21:23:17.049296 13700 net.cpp:434] conv8_1_relu <- conv8_1
I0403 21:23:17.049305 13700 net.cpp:395] conv8_1_relu -> conv8_1 (in-place)
I0403 21:23:17.049314 13700 net.cpp:150] Setting up conv8_1_relu
I0403 21:23:17.049319 13700 net.cpp:157] Top shape: 8 128 5 5 (25600)
I0403 21:23:17.049324 13700 net.cpp:165] Memory required for data: 1881686112
I0403 21:23:17.049329 13700 layer_factory.hpp:77] Creating layer conv8_2
I0403 21:23:17.049345 13700 net.cpp:100] Creating Layer conv8_2
I0403 21:23:17.049351 13700 net.cpp:434] conv8_2 <- conv8_1
I0403 21:23:17.049358 13700 net.cpp:408] conv8_2 -> conv8_2
I0403 21:23:17.052460 13700 net.cpp:150] Setting up conv8_2
I0403 21:23:17.052486 13700 net.cpp:157] Top shape: 8 256 3 3 (18432)
I0403 21:23:17.052492 13700 net.cpp:165] Memory required for data: 1881759840
I0403 21:23:17.052501 13700 layer_factory.hpp:77] Creating layer conv8_2_relu
I0403 21:23:17.052508 13700 net.cpp:100] Creating Layer conv8_2_relu
I0403 21:23:17.052513 13700 net.cpp:434] conv8_2_relu <- conv8_2
I0403 21:23:17.052522 13700 net.cpp:395] conv8_2_relu -> conv8_2 (in-place)
I0403 21:23:17.052531 13700 net.cpp:150] Setting up conv8_2_relu
I0403 21:23:17.052537 13700 net.cpp:157] Top shape: 8 256 3 3 (18432)
I0403 21:23:17.052541 13700 net.cpp:165] Memory required for data: 1881833568
I0403 21:23:17.052546 13700 layer_factory.hpp:77] Creating layer conv8_2_conv8_2_relu_0_split
I0403 21:23:17.052551 13700 net.cpp:100] Creating Layer conv8_2_conv8_2_relu_0_split
I0403 21:23:17.052556 13700 net.cpp:434] conv8_2_conv8_2_relu_0_split <- conv8_2
I0403 21:23:17.052562 13700 net.cpp:408] conv8_2_conv8_2_relu_0_split -> conv8_2_conv8_2_relu_0_split_0
I0403 21:23:17.052570 13700 net.cpp:408] conv8_2_conv8_2_relu_0_split -> conv8_2_conv8_2_relu_0_split_1
I0403 21:23:17.052578 13700 net.cpp:408] conv8_2_conv8_2_relu_0_split -> conv8_2_conv8_2_relu_0_split_2
I0403 21:23:17.052585 13700 net.cpp:408] conv8_2_conv8_2_relu_0_split -> conv8_2_conv8_2_relu_0_split_3
I0403 21:23:17.052645 13700 net.cpp:150] Setting up conv8_2_conv8_2_relu_0_split
I0403 21:23:17.052667 13700 net.cpp:157] Top shape: 8 256 3 3 (18432)
I0403 21:23:17.052680 13700 net.cpp:157] Top shape: 8 256 3 3 (18432)
I0403 21:23:17.052685 13700 net.cpp:157] Top shape: 8 256 3 3 (18432)
I0403 21:23:17.052690 13700 net.cpp:157] Top shape: 8 256 3 3 (18432)
I0403 21:23:17.052693 13700 net.cpp:165] Memory required for data: 1882128480
I0403 21:23:17.052697 13700 layer_factory.hpp:77] Creating layer conv9_1
I0403 21:23:17.052711 13700 net.cpp:100] Creating Layer conv9_1
I0403 21:23:17.052727 13700 net.cpp:434] conv9_1 <- conv8_2_conv8_2_relu_0_split_0
I0403 21:23:17.052738 13700 net.cpp:408] conv9_1 -> conv9_1
I0403 21:23:17.053197 13700 net.cpp:150] Setting up conv9_1
I0403 21:23:17.053210 13700 net.cpp:157] Top shape: 8 128 3 3 (9216)
I0403 21:23:17.053226 13700 net.cpp:165] Memory required for data: 1882165344
I0403 21:23:17.053234 13700 layer_factory.hpp:77] Creating layer conv9_1_relu
I0403 21:23:17.053241 13700 net.cpp:100] Creating Layer conv9_1_relu
I0403 21:23:17.053246 13700 net.cpp:434] conv9_1_relu <- conv9_1
I0403 21:23:17.053256 13700 net.cpp:395] conv9_1_relu -> conv9_1 (in-place)
I0403 21:23:17.053263 13700 net.cpp:150] Setting up conv9_1_relu
I0403 21:23:17.053268 13700 net.cpp:157] Top shape: 8 128 3 3 (9216)
I0403 21:23:17.053273 13700 net.cpp:165] Memory required for data: 1882202208
I0403 21:23:17.053277 13700 layer_factory.hpp:77] Creating layer conv9_2
I0403 21:23:17.053288 13700 net.cpp:100] Creating Layer conv9_2
I0403 21:23:17.053294 13700 net.cpp:434] conv9_2 <- conv9_1
I0403 21:23:17.053302 13700 net.cpp:408] conv9_2 -> conv9_2
I0403 21:23:17.056244 13700 net.cpp:150] Setting up conv9_2
I0403 21:23:17.056272 13700 net.cpp:157] Top shape: 8 256 1 1 (2048)
I0403 21:23:17.056277 13700 net.cpp:165] Memory required for data: 1882210400
I0403 21:23:17.056284 13700 layer_factory.hpp:77] Creating layer conv9_2_relu
I0403 21:23:17.056293 13700 net.cpp:100] Creating Layer conv9_2_relu
I0403 21:23:17.056298 13700 net.cpp:434] conv9_2_relu <- conv9_2
I0403 21:23:17.056304 13700 net.cpp:395] conv9_2_relu -> conv9_2 (in-place)
I0403 21:23:17.056311 13700 net.cpp:150] Setting up conv9_2_relu
I0403 21:23:17.056318 13700 net.cpp:157] Top shape: 8 256 1 1 (2048)
I0403 21:23:17.056321 13700 net.cpp:165] Memory required for data: 1882218592
I0403 21:23:17.056326 13700 layer_factory.hpp:77] Creating layer conv9_2_conv9_2_relu_0_split
I0403 21:23:17.056339 13700 net.cpp:100] Creating Layer conv9_2_conv9_2_relu_0_split
I0403 21:23:17.056345 13700 net.cpp:434] conv9_2_conv9_2_relu_0_split <- conv9_2
I0403 21:23:17.056351 13700 net.cpp:408] conv9_2_conv9_2_relu_0_split -> conv9_2_conv9_2_relu_0_split_0
I0403 21:23:17.056360 13700 net.cpp:408] conv9_2_conv9_2_relu_0_split -> conv9_2_conv9_2_relu_0_split_1
I0403 21:23:17.056367 13700 net.cpp:408] conv9_2_conv9_2_relu_0_split -> conv9_2_conv9_2_relu_0_split_2
I0403 21:23:17.056421 13700 net.cpp:150] Setting up conv9_2_conv9_2_relu_0_split
I0403 21:23:17.056432 13700 net.cpp:157] Top shape: 8 256 1 1 (2048)
I0403 21:23:17.056449 13700 net.cpp:157] Top shape: 8 256 1 1 (2048)
I0403 21:23:17.056454 13700 net.cpp:157] Top shape: 8 256 1 1 (2048)
I0403 21:23:17.056458 13700 net.cpp:165] Memory required for data: 1882243168
I0403 21:23:17.056463 13700 layer_factory.hpp:77] Creating layer conv4_3_norm
I0403 21:23:17.057466 13700 net.cpp:100] Creating Layer conv4_3_norm
I0403 21:23:17.057492 13700 net.cpp:434] conv4_3_norm <- conv4_3_relu4_3_0_split_1
I0403 21:23:17.057502 13700 net.cpp:408] conv4_3_norm -> conv4_3_norm
I0403 21:23:17.059346 13700 net.cpp:150] Setting up conv4_3_norm
I0403 21:23:17.059372 13700 net.cpp:157] Top shape: 8 512 38 38 (5914624)
I0403 21:23:17.059378 13700 net.cpp:165] Memory required for data: 1905901664
I0403 21:23:17.059386 13700 layer_factory.hpp:77] Creating layer conv4_3_norm_conv4_3_norm_0_split
I0403 21:23:17.059394 13700 net.cpp:100] Creating Layer conv4_3_norm_conv4_3_norm_0_split
I0403 21:23:17.059399 13700 net.cpp:434] conv4_3_norm_conv4_3_norm_0_split <- conv4_3_norm
I0403 21:23:17.059408 13700 net.cpp:408] conv4_3_norm_conv4_3_norm_0_split -> conv4_3_norm_conv4_3_norm_0_split_0
I0403 21:23:17.059423 13700 net.cpp:408] conv4_3_norm_conv4_3_norm_0_split -> conv4_3_norm_conv4_3_norm_0_split_1
I0403 21:23:17.059432 13700 net.cpp:408] conv4_3_norm_conv4_3_norm_0_split -> conv4_3_norm_conv4_3_norm_0_split_2
I0403 21:23:17.059479 13700 net.cpp:150] Setting up conv4_3_norm_conv4_3_norm_0_split
I0403 21:23:17.059489 13700 net.cpp:157] Top shape: 8 512 38 38 (5914624)
I0403 21:23:17.059507 13700 net.cpp:157] Top shape: 8 512 38 38 (5914624)
I0403 21:23:17.059512 13700 net.cpp:157] Top shape: 8 512 38 38 (5914624)
I0403 21:23:17.059516 13700 net.cpp:165] Memory required for data: 1976877152
I0403 21:23:17.059521 13700 layer_factory.hpp:77] Creating layer conv4_3_norm_mbox_loc
I0403 21:23:17.059533 13700 net.cpp:100] Creating Layer conv4_3_norm_mbox_loc
I0403 21:23:17.059538 13700 net.cpp:434] conv4_3_norm_mbox_loc <- conv4_3_norm_conv4_3_norm_0_split_0
I0403 21:23:17.059546 13700 net.cpp:408] conv4_3_norm_mbox_loc -> conv4_3_norm_mbox_loc
I0403 21:23:17.060339 13700 net.cpp:150] Setting up conv4_3_norm_mbox_loc
I0403 21:23:17.060364 13700 net.cpp:157] Top shape: 8 16 38 38 (184832)
I0403 21:23:17.060370 13700 net.cpp:165] Memory required for data: 1977616480
I0403 21:23:17.060379 13700 layer_factory.hpp:77] Creating layer conv4_3_norm_mbox_loc_perm
I0403 21:23:17.061956 13700 net.cpp:100] Creating Layer conv4_3_norm_mbox_loc_perm
I0403 21:23:17.061969 13700 net.cpp:434] conv4_3_norm_mbox_loc_perm <- conv4_3_norm_mbox_loc
I0403 21:23:17.061990 13700 net.cpp:408] conv4_3_norm_mbox_loc_perm -> conv4_3_norm_mbox_loc_perm
I0403 21:23:17.063544 13700 net.cpp:150] Setting up conv4_3_norm_mbox_loc_perm
I0403 21:23:17.063560 13700 net.cpp:157] Top shape: 8 38 38 16 (184832)
I0403 21:23:17.063576 13700 net.cpp:165] Memory required for data: 1978355808
I0403 21:23:17.063581 13700 layer_factory.hpp:77] Creating layer conv4_3_norm_mbox_loc_flat
I0403 21:23:17.063989 13700 net.cpp:100] Creating Layer conv4_3_norm_mbox_loc_flat
I0403 21:23:17.064002 13700 net.cpp:434] conv4_3_norm_mbox_loc_flat <- conv4_3_norm_mbox_loc_perm
I0403 21:23:17.064013 13700 net.cpp:408] conv4_3_norm_mbox_loc_flat -> conv4_3_norm_mbox_loc_flat
I0403 21:23:17.064651 13700 net.cpp:150] Setting up conv4_3_norm_mbox_loc_flat
I0403 21:23:17.064668 13700 net.cpp:157] Top shape: 8 23104 (184832)
I0403 21:23:17.064674 13700 net.cpp:165] Memory required for data: 1979095136
I0403 21:23:17.064679 13700 layer_factory.hpp:77] Creating layer conv4_3_norm_mbox_conf
I0403 21:23:17.064702 13700 net.cpp:100] Creating Layer conv4_3_norm_mbox_conf
I0403 21:23:17.064707 13700 net.cpp:434] conv4_3_norm_mbox_conf <- conv4_3_norm_conv4_3_norm_0_split_1
I0403 21:23:17.064716 13700 net.cpp:408] conv4_3_norm_mbox_conf -> conv4_3_norm_mbox_conf
I0403 21:23:17.068764 13700 net.cpp:150] Setting up conv4_3_norm_mbox_conf
I0403 21:23:17.068783 13700 net.cpp:157] Top shape: 8 84 38 38 (970368)
I0403 21:23:17.068787 13700 net.cpp:165] Memory required for data: 1982976608
I0403 21:23:17.068795 13700 layer_factory.hpp:77] Creating layer conv4_3_norm_mbox_conf_perm
I0403 21:23:17.068804 13700 net.cpp:100] Creating Layer conv4_3_norm_mbox_conf_perm
I0403 21:23:17.068809 13700 net.cpp:434] conv4_3_norm_mbox_conf_perm <- conv4_3_norm_mbox_conf
I0403 21:23:17.068817 13700 net.cpp:408] conv4_3_norm_mbox_conf_perm -> conv4_3_norm_mbox_conf_perm
I0403 21:23:17.068917 13700 net.cpp:150] Setting up conv4_3_norm_mbox_conf_perm
I0403 21:23:17.068928 13700 net.cpp:157] Top shape: 8 38 38 84 (970368)
I0403 21:23:17.068933 13700 net.cpp:165] Memory required for data: 1986858080
I0403 21:23:17.068938 13700 layer_factory.hpp:77] Creating layer conv4_3_norm_mbox_conf_flat
I0403 21:23:17.068944 13700 net.cpp:100] Creating Layer conv4_3_norm_mbox_conf_flat
I0403 21:23:17.068949 13700 net.cpp:434] conv4_3_norm_mbox_conf_flat <- conv4_3_norm_mbox_conf_perm
I0403 21:23:17.068958 13700 net.cpp:408] conv4_3_norm_mbox_conf_flat -> conv4_3_norm_mbox_conf_flat
I0403 21:23:17.068985 13700 net.cpp:150] Setting up conv4_3_norm_mbox_conf_flat
I0403 21:23:17.068994 13700 net.cpp:157] Top shape: 8 121296 (970368)
I0403 21:23:17.069005 13700 net.cpp:165] Memory required for data: 1990739552
I0403 21:23:17.069010 13700 layer_factory.hpp:77] Creating layer conv4_3_norm_mbox_priorbox
I0403 21:23:17.069044 13700 net.cpp:100] Creating Layer conv4_3_norm_mbox_priorbox
I0403 21:23:17.069053 13700 net.cpp:434] conv4_3_norm_mbox_priorbox <- conv4_3_norm_conv4_3_norm_0_split_2
I0403 21:23:17.069061 13700 net.cpp:434] conv4_3_norm_mbox_priorbox <- data_data_0_split_1
I0403 21:23:17.069070 13700 net.cpp:408] conv4_3_norm_mbox_priorbox -> conv4_3_norm_mbox_priorbox
I0403 21:23:17.069133 13700 net.cpp:150] Setting up conv4_3_norm_mbox_priorbox
I0403 21:23:17.069146 13700 net.cpp:157] Top shape: 1 2 23104 (46208)
I0403 21:23:17.069151 13700 net.cpp:165] Memory required for data: 1990924384
I0403 21:23:17.069156 13700 layer_factory.hpp:77] Creating layer fc7_mbox_loc
I0403 21:23:17.069169 13700 net.cpp:100] Creating Layer fc7_mbox_loc
I0403 21:23:17.069175 13700 net.cpp:434] fc7_mbox_loc <- fc7_relu7_0_split_1
I0403 21:23:17.069183 13700 net.cpp:408] fc7_mbox_loc -> fc7_mbox_loc
I0403 21:23:17.071596 13700 net.cpp:150] Setting up fc7_mbox_loc
I0403 21:23:17.071612 13700 net.cpp:157] Top shape: 8 24 19 19 (69312)
I0403 21:23:17.071617 13700 net.cpp:165] Memory required for data: 1991201632
I0403 21:23:17.071625 13700 layer_factory.hpp:77] Creating layer fc7_mbox_loc_perm
I0403 21:23:17.071636 13700 net.cpp:100] Creating Layer fc7_mbox_loc_perm
I0403 21:23:17.071641 13700 net.cpp:434] fc7_mbox_loc_perm <- fc7_mbox_loc
I0403 21:23:17.071650 13700 net.cpp:408] fc7_mbox_loc_perm -> fc7_mbox_loc_perm
I0403 21:23:17.071746 13700 net.cpp:150] Setting up fc7_mbox_loc_perm
I0403 21:23:17.071758 13700 net.cpp:157] Top shape: 8 19 19 24 (69312)
I0403 21:23:17.071761 13700 net.cpp:165] Memory required for data: 1991478880
I0403 21:23:17.071766 13700 layer_factory.hpp:77] Creating layer fc7_mbox_loc_flat
I0403 21:23:17.071774 13700 net.cpp:100] Creating Layer fc7_mbox_loc_flat
I0403 21:23:17.071779 13700 net.cpp:434] fc7_mbox_loc_flat <- fc7_mbox_loc_perm
I0403 21:23:17.071786 13700 net.cpp:408] fc7_mbox_loc_flat -> fc7_mbox_loc_flat
I0403 21:23:17.071811 13700 net.cpp:150] Setting up fc7_mbox_loc_flat
I0403 21:23:17.071825 13700 net.cpp:157] Top shape: 8 8664 (69312)
I0403 21:23:17.071830 13700 net.cpp:165] Memory required for data: 1991756128
I0403 21:23:17.071835 13700 layer_factory.hpp:77] Creating layer fc7_mbox_conf
I0403 21:23:17.071846 13700 net.cpp:100] Creating Layer fc7_mbox_conf
I0403 21:23:17.071852 13700 net.cpp:434] fc7_mbox_conf <- fc7_relu7_0_split_2
I0403 21:23:17.071861 13700 net.cpp:408] fc7_mbox_conf -> fc7_mbox_conf
I0403 21:23:17.083039 13700 net.cpp:150] Setting up fc7_mbox_conf
I0403 21:23:17.083075 13700 net.cpp:157] Top shape: 8 126 19 19 (363888)
I0403 21:23:17.083081 13700 net.cpp:165] Memory required for data: 1993211680
I0403 21:23:17.083088 13700 layer_factory.hpp:77] Creating layer fc7_mbox_conf_perm
I0403 21:23:17.083096 13700 net.cpp:100] Creating Layer fc7_mbox_conf_perm
I0403 21:23:17.083104 13700 net.cpp:434] fc7_mbox_conf_perm <- fc7_mbox_conf
I0403 21:23:17.083112 13700 net.cpp:408] fc7_mbox_conf_perm -> fc7_mbox_conf_perm
I0403 21:23:17.083225 13700 net.cpp:150] Setting up fc7_mbox_conf_perm
I0403 21:23:17.083246 13700 net.cpp:157] Top shape: 8 19 19 126 (363888)
I0403 21:23:17.083252 13700 net.cpp:165] Memory required for data: 1994667232
I0403 21:23:17.083256 13700 layer_factory.hpp:77] Creating layer fc7_mbox_conf_flat
I0403 21:23:17.083263 13700 net.cpp:100] Creating Layer fc7_mbox_conf_flat
I0403 21:23:17.083269 13700 net.cpp:434] fc7_mbox_conf_flat <- fc7_mbox_conf_perm
I0403 21:23:17.083276 13700 net.cpp:408] fc7_mbox_conf_flat -> fc7_mbox_conf_flat
I0403 21:23:17.083303 13700 net.cpp:150] Setting up fc7_mbox_conf_flat
I0403 21:23:17.083313 13700 net.cpp:157] Top shape: 8 45486 (363888)
I0403 21:23:17.083318 13700 net.cpp:165] Memory required for data: 1996122784
I0403 21:23:17.083323 13700 layer_factory.hpp:77] Creating layer fc7_mbox_priorbox
I0403 21:23:17.083330 13700 net.cpp:100] Creating Layer fc7_mbox_priorbox
I0403 21:23:17.083348 13700 net.cpp:434] fc7_mbox_priorbox <- fc7_relu7_0_split_3
I0403 21:23:17.083354 13700 net.cpp:434] fc7_mbox_priorbox <- data_data_0_split_2
I0403 21:23:17.083361 13700 net.cpp:408] fc7_mbox_priorbox -> fc7_mbox_priorbox
I0403 21:23:17.083391 13700 net.cpp:150] Setting up fc7_mbox_priorbox
I0403 21:23:17.083401 13700 net.cpp:157] Top shape: 1 2 8664 (17328)
I0403 21:23:17.083405 13700 net.cpp:165] Memory required for data: 1996192096
I0403 21:23:17.083410 13700 layer_factory.hpp:77] Creating layer conv6_2_mbox_loc
I0403 21:23:17.083421 13700 net.cpp:100] Creating Layer conv6_2_mbox_loc
I0403 21:23:17.083427 13700 net.cpp:434] conv6_2_mbox_loc <- conv6_2_conv6_2_relu_0_split_1
I0403 21:23:17.083437 13700 net.cpp:408] conv6_2_mbox_loc -> conv6_2_mbox_loc
I0403 21:23:17.084955 13700 net.cpp:150] Setting up conv6_2_mbox_loc
I0403 21:23:17.084970 13700 net.cpp:157] Top shape: 8 24 10 10 (19200)
I0403 21:23:17.084986 13700 net.cpp:165] Memory required for data: 1996268896
I0403 21:23:17.084995 13700 layer_factory.hpp:77] Creating layer conv6_2_mbox_loc_perm
I0403 21:23:17.085003 13700 net.cpp:100] Creating Layer conv6_2_mbox_loc_perm
I0403 21:23:17.085008 13700 net.cpp:434] conv6_2_mbox_loc_perm <- conv6_2_mbox_loc
I0403 21:23:17.085023 13700 net.cpp:408] conv6_2_mbox_loc_perm -> conv6_2_mbox_loc_perm
I0403 21:23:17.085135 13700 net.cpp:150] Setting up conv6_2_mbox_loc_perm
I0403 21:23:17.085146 13700 net.cpp:157] Top shape: 8 10 10 24 (19200)
I0403 21:23:17.085162 13700 net.cpp:165] Memory required for data: 1996345696
I0403 21:23:17.085167 13700 layer_factory.hpp:77] Creating layer conv6_2_mbox_loc_flat
I0403 21:23:17.085175 13700 net.cpp:100] Creating Layer conv6_2_mbox_loc_flat
I0403 21:23:17.085180 13700 net.cpp:434] conv6_2_mbox_loc_flat <- conv6_2_mbox_loc_perm
I0403 21:23:17.085186 13700 net.cpp:408] conv6_2_mbox_loc_flat -> conv6_2_mbox_loc_flat
I0403 21:23:17.085213 13700 net.cpp:150] Setting up conv6_2_mbox_loc_flat
I0403 21:23:17.085223 13700 net.cpp:157] Top shape: 8 2400 (19200)
I0403 21:23:17.085228 13700 net.cpp:165] Memory required for data: 1996422496
I0403 21:23:17.085232 13700 layer_factory.hpp:77] Creating layer conv6_2_mbox_conf
I0403 21:23:17.085245 13700 net.cpp:100] Creating Layer conv6_2_mbox_conf
I0403 21:23:17.085250 13700 net.cpp:434] conv6_2_mbox_conf <- conv6_2_conv6_2_relu_0_split_2
I0403 21:23:17.085260 13700 net.cpp:408] conv6_2_mbox_conf -> conv6_2_mbox_conf
I0403 21:23:17.090936 13700 net.cpp:150] Setting up conv6_2_mbox_conf
I0403 21:23:17.090965 13700 net.cpp:157] Top shape: 8 126 10 10 (100800)
I0403 21:23:17.090970 13700 net.cpp:165] Memory required for data: 1996825696
I0403 21:23:17.090978 13700 layer_factory.hpp:77] Creating layer conv6_2_mbox_conf_perm
I0403 21:23:17.090986 13700 net.cpp:100] Creating Layer conv6_2_mbox_conf_perm
I0403 21:23:17.090992 13700 net.cpp:434] conv6_2_mbox_conf_perm <- conv6_2_mbox_conf
I0403 21:23:17.091001 13700 net.cpp:408] conv6_2_mbox_conf_perm -> conv6_2_mbox_conf_perm
I0403 21:23:17.091114 13700 net.cpp:150] Setting up conv6_2_mbox_conf_perm
I0403 21:23:17.091128 13700 net.cpp:157] Top shape: 8 10 10 126 (100800)
I0403 21:23:17.091133 13700 net.cpp:165] Memory required for data: 1997228896
I0403 21:23:17.091137 13700 layer_factory.hpp:77] Creating layer conv6_2_mbox_conf_flat
I0403 21:23:17.091145 13700 net.cpp:100] Creating Layer conv6_2_mbox_conf_flat
I0403 21:23:17.091150 13700 net.cpp:434] conv6_2_mbox_conf_flat <- conv6_2_mbox_conf_perm
I0403 21:23:17.091156 13700 net.cpp:408] conv6_2_mbox_conf_flat -> conv6_2_mbox_conf_flat
I0403 21:23:17.091195 13700 net.cpp:150] Setting up conv6_2_mbox_conf_flat
I0403 21:23:17.091204 13700 net.cpp:157] Top shape: 8 12600 (100800)
I0403 21:23:17.091208 13700 net.cpp:165] Memory required for data: 1997632096
I0403 21:23:17.091213 13700 layer_factory.hpp:77] Creating layer conv6_2_mbox_priorbox
I0403 21:23:17.091223 13700 net.cpp:100] Creating Layer conv6_2_mbox_priorbox
I0403 21:23:17.091228 13700 net.cpp:434] conv6_2_mbox_priorbox <- conv6_2_conv6_2_relu_0_split_3
I0403 21:23:17.091234 13700 net.cpp:434] conv6_2_mbox_priorbox <- data_data_0_split_3
I0403 21:23:17.091248 13700 net.cpp:408] conv6_2_mbox_priorbox -> conv6_2_mbox_priorbox
I0403 21:23:17.091279 13700 net.cpp:150] Setting up conv6_2_mbox_priorbox
I0403 21:23:17.091286 13700 net.cpp:157] Top shape: 1 2 2400 (4800)
I0403 21:23:17.091291 13700 net.cpp:165] Memory required for data: 1997651296
I0403 21:23:17.091295 13700 layer_factory.hpp:77] Creating layer conv7_2_mbox_loc
I0403 21:23:17.091307 13700 net.cpp:100] Creating Layer conv7_2_mbox_loc
I0403 21:23:17.091313 13700 net.cpp:434] conv7_2_mbox_loc <- conv7_2_conv7_2_relu_0_split_1
I0403 21:23:17.091323 13700 net.cpp:408] conv7_2_mbox_loc -> conv7_2_mbox_loc
I0403 21:23:17.092509 13700 net.cpp:150] Setting up conv7_2_mbox_loc
I0403 21:23:17.092536 13700 net.cpp:157] Top shape: 8 24 5 5 (4800)
I0403 21:23:17.092542 13700 net.cpp:165] Memory required for data: 1997670496
I0403 21:23:17.092550 13700 layer_factory.hpp:77] Creating layer conv7_2_mbox_loc_perm
I0403 21:23:17.092558 13700 net.cpp:100] Creating Layer conv7_2_mbox_loc_perm
I0403 21:23:17.092563 13700 net.cpp:434] conv7_2_mbox_loc_perm <- conv7_2_mbox_loc
I0403 21:23:17.092572 13700 net.cpp:408] conv7_2_mbox_loc_perm -> conv7_2_mbox_loc_perm
I0403 21:23:17.092691 13700 net.cpp:150] Setting up conv7_2_mbox_loc_perm
I0403 21:23:17.092716 13700 net.cpp:157] Top shape: 8 5 5 24 (4800)
I0403 21:23:17.092721 13700 net.cpp:165] Memory required for data: 1997689696
I0403 21:23:17.092726 13700 layer_factory.hpp:77] Creating layer conv7_2_mbox_loc_flat
I0403 21:23:17.092733 13700 net.cpp:100] Creating Layer conv7_2_mbox_loc_flat
I0403 21:23:17.092738 13700 net.cpp:434] conv7_2_mbox_loc_flat <- conv7_2_mbox_loc_perm
I0403 21:23:17.092746 13700 net.cpp:408] conv7_2_mbox_loc_flat -> conv7_2_mbox_loc_flat
I0403 21:23:17.092773 13700 net.cpp:150] Setting up conv7_2_mbox_loc_flat
I0403 21:23:17.092783 13700 net.cpp:157] Top shape: 8 600 (4800)
I0403 21:23:17.092787 13700 net.cpp:165] Memory required for data: 1997708896
I0403 21:23:17.092792 13700 layer_factory.hpp:77] Creating layer conv7_2_mbox_conf
I0403 21:23:17.092803 13700 net.cpp:100] Creating Layer conv7_2_mbox_conf
I0403 21:23:17.092809 13700 net.cpp:434] conv7_2_mbox_conf <- conv7_2_conv7_2_relu_0_split_2
I0403 21:23:17.092818 13700 net.cpp:408] conv7_2_mbox_conf -> conv7_2_mbox_conf
I0403 21:23:17.095696 13700 net.cpp:150] Setting up conv7_2_mbox_conf
I0403 21:23:17.095723 13700 net.cpp:157] Top shape: 8 126 5 5 (25200)
I0403 21:23:17.095729 13700 net.cpp:165] Memory required for data: 1997809696
I0403 21:23:17.095737 13700 layer_factory.hpp:77] Creating layer conv7_2_mbox_conf_perm
I0403 21:23:17.095746 13700 net.cpp:100] Creating Layer conv7_2_mbox_conf_perm
I0403 21:23:17.095752 13700 net.cpp:434] conv7_2_mbox_conf_perm <- conv7_2_mbox_conf
I0403 21:23:17.095760 13700 net.cpp:408] conv7_2_mbox_conf_perm -> conv7_2_mbox_conf_perm
I0403 21:23:17.095871 13700 net.cpp:150] Setting up conv7_2_mbox_conf_perm
I0403 21:23:17.095885 13700 net.cpp:157] Top shape: 8 5 5 126 (25200)
I0403 21:23:17.095901 13700 net.cpp:165] Memory required for data: 1997910496
I0403 21:23:17.095906 13700 layer_factory.hpp:77] Creating layer conv7_2_mbox_conf_flat
I0403 21:23:17.095913 13700 net.cpp:100] Creating Layer conv7_2_mbox_conf_flat
I0403 21:23:17.095918 13700 net.cpp:434] conv7_2_mbox_conf_flat <- conv7_2_mbox_conf_perm
I0403 21:23:17.095926 13700 net.cpp:408] conv7_2_mbox_conf_flat -> conv7_2_mbox_conf_flat
I0403 21:23:17.095953 13700 net.cpp:150] Setting up conv7_2_mbox_conf_flat
I0403 21:23:17.095963 13700 net.cpp:157] Top shape: 8 3150 (25200)
I0403 21:23:17.095968 13700 net.cpp:165] Memory required for data: 1998011296
I0403 21:23:17.095973 13700 layer_factory.hpp:77] Creating layer conv7_2_mbox_priorbox
I0403 21:23:17.095983 13700 net.cpp:100] Creating Layer conv7_2_mbox_priorbox
I0403 21:23:17.095988 13700 net.cpp:434] conv7_2_mbox_priorbox <- conv7_2_conv7_2_relu_0_split_3
I0403 21:23:17.095993 13700 net.cpp:434] conv7_2_mbox_priorbox <- data_data_0_split_4
I0403 21:23:17.096001 13700 net.cpp:408] conv7_2_mbox_priorbox -> conv7_2_mbox_priorbox
I0403 21:23:17.096038 13700 net.cpp:150] Setting up conv7_2_mbox_priorbox
I0403 21:23:17.096048 13700 net.cpp:157] Top shape: 1 2 600 (1200)
I0403 21:23:17.096052 13700 net.cpp:165] Memory required for data: 1998016096
I0403 21:23:17.096057 13700 layer_factory.hpp:77] Creating layer conv8_2_mbox_loc
I0403 21:23:17.096068 13700 net.cpp:100] Creating Layer conv8_2_mbox_loc
I0403 21:23:17.096074 13700 net.cpp:434] conv8_2_mbox_loc <- conv8_2_conv8_2_relu_0_split_1
I0403 21:23:17.096086 13700 net.cpp:408] conv8_2_mbox_loc -> conv8_2_mbox_loc
I0403 21:23:17.096592 13700 net.cpp:150] Setting up conv8_2_mbox_loc
I0403 21:23:17.096606 13700 net.cpp:157] Top shape: 8 16 3 3 (1152)
I0403 21:23:17.096621 13700 net.cpp:165] Memory required for data: 1998020704
I0403 21:23:17.096644 13700 layer_factory.hpp:77] Creating layer conv8_2_mbox_loc_perm
I0403 21:23:17.096653 13700 net.cpp:100] Creating Layer conv8_2_mbox_loc_perm
I0403 21:23:17.096658 13700 net.cpp:434] conv8_2_mbox_loc_perm <- conv8_2_mbox_loc
I0403 21:23:17.096668 13700 net.cpp:408] conv8_2_mbox_loc_perm -> conv8_2_mbox_loc_perm
I0403 21:23:17.096781 13700 net.cpp:150] Setting up conv8_2_mbox_loc_perm
I0403 21:23:17.096802 13700 net.cpp:157] Top shape: 8 3 3 16 (1152)
I0403 21:23:17.096808 13700 net.cpp:165] Memory required for data: 1998025312
I0403 21:23:17.096812 13700 layer_factory.hpp:77] Creating layer conv8_2_mbox_loc_flat
I0403 21:23:17.096819 13700 net.cpp:100] Creating Layer conv8_2_mbox_loc_flat
I0403 21:23:17.096824 13700 net.cpp:434] conv8_2_mbox_loc_flat <- conv8_2_mbox_loc_perm
I0403 21:23:17.096834 13700 net.cpp:408] conv8_2_mbox_loc_flat -> conv8_2_mbox_loc_flat
I0403 21:23:17.096863 13700 net.cpp:150] Setting up conv8_2_mbox_loc_flat
I0403 21:23:17.096873 13700 net.cpp:157] Top shape: 8 144 (1152)
I0403 21:23:17.096877 13700 net.cpp:165] Memory required for data: 1998029920
I0403 21:23:17.096894 13700 layer_factory.hpp:77] Creating layer conv8_2_mbox_conf
I0403 21:23:17.096905 13700 net.cpp:100] Creating Layer conv8_2_mbox_conf
I0403 21:23:17.096911 13700 net.cpp:434] conv8_2_mbox_conf <- conv8_2_conv8_2_relu_0_split_2
I0403 21:23:17.096918 13700 net.cpp:408] conv8_2_mbox_conf -> conv8_2_mbox_conf
I0403 21:23:17.099112 13700 net.cpp:150] Setting up conv8_2_mbox_conf
I0403 21:23:17.099140 13700 net.cpp:157] Top shape: 8 84 3 3 (6048)
I0403 21:23:17.099146 13700 net.cpp:165] Memory required for data: 1998054112
I0403 21:23:17.099154 13700 layer_factory.hpp:77] Creating layer conv8_2_mbox_conf_perm
I0403 21:23:17.099162 13700 net.cpp:100] Creating Layer conv8_2_mbox_conf_perm
I0403 21:23:17.099169 13700 net.cpp:434] conv8_2_mbox_conf_perm <- conv8_2_mbox_conf
I0403 21:23:17.099175 13700 net.cpp:408] conv8_2_mbox_conf_perm -> conv8_2_mbox_conf_perm
I0403 21:23:17.099277 13700 net.cpp:150] Setting up conv8_2_mbox_conf_perm
I0403 21:23:17.099287 13700 net.cpp:157] Top shape: 8 3 3 84 (6048)
I0403 21:23:17.099292 13700 net.cpp:165] Memory required for data: 1998078304
I0403 21:23:17.099297 13700 layer_factory.hpp:77] Creating layer conv8_2_mbox_conf_flat
I0403 21:23:17.099303 13700 net.cpp:100] Creating Layer conv8_2_mbox_conf_flat
I0403 21:23:17.099308 13700 net.cpp:434] conv8_2_mbox_conf_flat <- conv8_2_mbox_conf_perm
I0403 21:23:17.099316 13700 net.cpp:408] conv8_2_mbox_conf_flat -> conv8_2_mbox_conf_flat
I0403 21:23:17.099349 13700 net.cpp:150] Setting up conv8_2_mbox_conf_flat
I0403 21:23:17.099359 13700 net.cpp:157] Top shape: 8 756 (6048)
I0403 21:23:17.099364 13700 net.cpp:165] Memory required for data: 1998102496
I0403 21:23:17.099369 13700 layer_factory.hpp:77] Creating layer conv8_2_mbox_priorbox
I0403 21:23:17.099376 13700 net.cpp:100] Creating Layer conv8_2_mbox_priorbox
I0403 21:23:17.099381 13700 net.cpp:434] conv8_2_mbox_priorbox <- conv8_2_conv8_2_relu_0_split_3
I0403 21:23:17.099387 13700 net.cpp:434] conv8_2_mbox_priorbox <- data_data_0_split_5
I0403 21:23:17.099396 13700 net.cpp:408] conv8_2_mbox_priorbox -> conv8_2_mbox_priorbox
I0403 21:23:17.099424 13700 net.cpp:150] Setting up conv8_2_mbox_priorbox
I0403 21:23:17.099442 13700 net.cpp:157] Top shape: 1 2 144 (288)
I0403 21:23:17.099447 13700 net.cpp:165] Memory required for data: 1998103648
I0403 21:23:17.099452 13700 layer_factory.hpp:77] Creating layer conv9_2_mbox_loc
I0403 21:23:17.099463 13700 net.cpp:100] Creating Layer conv9_2_mbox_loc
I0403 21:23:17.099469 13700 net.cpp:434] conv9_2_mbox_loc <- conv9_2_conv9_2_relu_0_split_0
I0403 21:23:17.099478 13700 net.cpp:408] conv9_2_mbox_loc -> conv9_2_mbox_loc
I0403 21:23:17.099972 13700 net.cpp:150] Setting up conv9_2_mbox_loc
I0403 21:23:17.099984 13700 net.cpp:157] Top shape: 8 16 1 1 (128)
I0403 21:23:17.100000 13700 net.cpp:165] Memory required for data: 1998104160
I0403 21:23:17.100008 13700 layer_factory.hpp:77] Creating layer conv9_2_mbox_loc_perm
I0403 21:23:17.100016 13700 net.cpp:100] Creating Layer conv9_2_mbox_loc_perm
I0403 21:23:17.100021 13700 net.cpp:434] conv9_2_mbox_loc_perm <- conv9_2_mbox_loc
I0403 21:23:17.100030 13700 net.cpp:408] conv9_2_mbox_loc_perm -> conv9_2_mbox_loc_perm
I0403 21:23:17.100144 13700 net.cpp:150] Setting up conv9_2_mbox_loc_perm
I0403 21:23:17.100155 13700 net.cpp:157] Top shape: 8 1 1 16 (128)
I0403 21:23:17.100172 13700 net.cpp:165] Memory required for data: 1998104672
I0403 21:23:17.100177 13700 layer_factory.hpp:77] Creating layer conv9_2_mbox_loc_flat
I0403 21:23:17.100183 13700 net.cpp:100] Creating Layer conv9_2_mbox_loc_flat
I0403 21:23:17.100188 13700 net.cpp:434] conv9_2_mbox_loc_flat <- conv9_2_mbox_loc_perm
I0403 21:23:17.100198 13700 net.cpp:408] conv9_2_mbox_loc_flat -> conv9_2_mbox_loc_flat
I0403 21:23:17.100224 13700 net.cpp:150] Setting up conv9_2_mbox_loc_flat
I0403 21:23:17.100235 13700 net.cpp:157] Top shape: 8 16 (128)
I0403 21:23:17.100240 13700 net.cpp:165] Memory required for data: 1998105184
I0403 21:23:17.100245 13700 layer_factory.hpp:77] Creating layer conv9_2_mbox_conf
I0403 21:23:17.100256 13700 net.cpp:100] Creating Layer conv9_2_mbox_conf
I0403 21:23:17.100262 13700 net.cpp:434] conv9_2_mbox_conf <- conv9_2_conv9_2_relu_0_split_1
I0403 21:23:17.100270 13700 net.cpp:408] conv9_2_mbox_conf -> conv9_2_mbox_conf
I0403 21:23:17.102459 13700 net.cpp:150] Setting up conv9_2_mbox_conf
I0403 21:23:17.102474 13700 net.cpp:157] Top shape: 8 84 1 1 (672)
I0403 21:23:17.102491 13700 net.cpp:165] Memory required for data: 1998107872
I0403 21:23:17.102499 13700 layer_factory.hpp:77] Creating layer conv9_2_mbox_conf_perm
I0403 21:23:17.102507 13700 net.cpp:100] Creating Layer conv9_2_mbox_conf_perm
I0403 21:23:17.102514 13700 net.cpp:434] conv9_2_mbox_conf_perm <- conv9_2_mbox_conf
I0403 21:23:17.102522 13700 net.cpp:408] conv9_2_mbox_conf_perm -> conv9_2_mbox_conf_perm
I0403 21:23:17.102636 13700 net.cpp:150] Setting up conv9_2_mbox_conf_perm
I0403 21:23:17.102648 13700 net.cpp:157] Top shape: 8 1 1 84 (672)
I0403 21:23:17.102663 13700 net.cpp:165] Memory required for data: 1998110560
I0403 21:23:17.102669 13700 layer_factory.hpp:77] Creating layer conv9_2_mbox_conf_flat
I0403 21:23:17.102675 13700 net.cpp:100] Creating Layer conv9_2_mbox_conf_flat
I0403 21:23:17.102680 13700 net.cpp:434] conv9_2_mbox_conf_flat <- conv9_2_mbox_conf_perm
I0403 21:23:17.102689 13700 net.cpp:408] conv9_2_mbox_conf_flat -> conv9_2_mbox_conf_flat
I0403 21:23:17.102715 13700 net.cpp:150] Setting up conv9_2_mbox_conf_flat
I0403 21:23:17.102727 13700 net.cpp:157] Top shape: 8 84 (672)
I0403 21:23:17.102732 13700 net.cpp:165] Memory required for data: 1998113248
I0403 21:23:17.102736 13700 layer_factory.hpp:77] Creating layer conv9_2_mbox_priorbox
I0403 21:23:17.102744 13700 net.cpp:100] Creating Layer conv9_2_mbox_priorbox
I0403 21:23:17.102749 13700 net.cpp:434] conv9_2_mbox_priorbox <- conv9_2_conv9_2_relu_0_split_2
I0403 21:23:17.102756 13700 net.cpp:434] conv9_2_mbox_priorbox <- data_data_0_split_6
I0403 21:23:17.102764 13700 net.cpp:408] conv9_2_mbox_priorbox -> conv9_2_mbox_priorbox
I0403 21:23:17.102792 13700 net.cpp:150] Setting up conv9_2_mbox_priorbox
I0403 21:23:17.102802 13700 net.cpp:157] Top shape: 1 2 16 (32)
I0403 21:23:17.102805 13700 net.cpp:165] Memory required for data: 1998113376
I0403 21:23:17.102816 13700 layer_factory.hpp:77] Creating layer mbox_loc
I0403 21:23:17.103448 13700 net.cpp:100] Creating Layer mbox_loc
I0403 21:23:17.103473 13700 net.cpp:434] mbox_loc <- conv4_3_norm_mbox_loc_flat
I0403 21:23:17.103482 13700 net.cpp:434] mbox_loc <- fc7_mbox_loc_flat
I0403 21:23:17.103488 13700 net.cpp:434] mbox_loc <- conv6_2_mbox_loc_flat
I0403 21:23:17.103494 13700 net.cpp:434] mbox_loc <- conv7_2_mbox_loc_flat
I0403 21:23:17.103500 13700 net.cpp:434] mbox_loc <- conv8_2_mbox_loc_flat
I0403 21:23:17.103505 13700 net.cpp:434] mbox_loc <- conv9_2_mbox_loc_flat
I0403 21:23:17.103513 13700 net.cpp:408] mbox_loc -> mbox_loc
I0403 21:23:17.104426 13700 net.cpp:150] Setting up mbox_loc
I0403 21:23:17.104441 13700 net.cpp:157] Top shape: 8 34928 (279424)
I0403 21:23:17.104446 13700 net.cpp:165] Memory required for data: 1999231072
I0403 21:23:17.104457 13700 layer_factory.hpp:77] Creating layer mbox_conf
I0403 21:23:17.104465 13700 net.cpp:100] Creating Layer mbox_conf
I0403 21:23:17.104470 13700 net.cpp:434] mbox_conf <- conv4_3_norm_mbox_conf_flat
I0403 21:23:17.104477 13700 net.cpp:434] mbox_conf <- fc7_mbox_conf_flat
I0403 21:23:17.104483 13700 net.cpp:434] mbox_conf <- conv6_2_mbox_conf_flat
I0403 21:23:17.104488 13700 net.cpp:434] mbox_conf <- conv7_2_mbox_conf_flat
I0403 21:23:17.104493 13700 net.cpp:434] mbox_conf <- conv8_2_mbox_conf_flat
I0403 21:23:17.104499 13700 net.cpp:434] mbox_conf <- conv9_2_mbox_conf_flat
I0403 21:23:17.104511 13700 net.cpp:408] mbox_conf -> mbox_conf
I0403 21:23:17.104539 13700 net.cpp:150] Setting up mbox_conf
I0403 21:23:17.104549 13700 net.cpp:157] Top shape: 8 183372 (1466976)
I0403 21:23:17.104553 13700 net.cpp:165] Memory required for data: 2005098976
I0403 21:23:17.104558 13700 layer_factory.hpp:77] Creating layer mbox_priorbox
I0403 21:23:17.104565 13700 net.cpp:100] Creating Layer mbox_priorbox
I0403 21:23:17.104570 13700 net.cpp:434] mbox_priorbox <- conv4_3_norm_mbox_priorbox
I0403 21:23:17.104576 13700 net.cpp:434] mbox_priorbox <- fc7_mbox_priorbox
I0403 21:23:17.104583 13700 net.cpp:434] mbox_priorbox <- conv6_2_mbox_priorbox
I0403 21:23:17.104588 13700 net.cpp:434] mbox_priorbox <- conv7_2_mbox_priorbox
I0403 21:23:17.104593 13700 net.cpp:434] mbox_priorbox <- conv8_2_mbox_priorbox
I0403 21:23:17.104598 13700 net.cpp:434] mbox_priorbox <- conv9_2_mbox_priorbox
I0403 21:23:17.104605 13700 net.cpp:408] mbox_priorbox -> mbox_priorbox
I0403 21:23:17.104631 13700 net.cpp:150] Setting up mbox_priorbox
I0403 21:23:17.104640 13700 net.cpp:157] Top shape: 1 2 34928 (69856)
I0403 21:23:17.104645 13700 net.cpp:165] Memory required for data: 2005378400
I0403 21:23:17.104648 13700 layer_factory.hpp:77] Creating layer mbox_loss
I0403 21:23:17.105137 13700 net.cpp:100] Creating Layer mbox_loss
I0403 21:23:17.105161 13700 net.cpp:434] mbox_loss <- mbox_loc
I0403 21:23:17.105168 13700 net.cpp:434] mbox_loss <- mbox_conf
I0403 21:23:17.105173 13700 net.cpp:434] mbox_loss <- mbox_priorbox
…
state {
  phase: TEST
}
layer {
  name: "data"
  type: "AnnotatedData"
  top: "data"
  top: "label"
  include {
    phase: TEST
  }
  transform_param {
    mean_value: 104
    mean_value: 117
    mean_value: 123
    resize_param {
      prob: 1
      resize_mode: WARP
      height: 300
      width: 300
      interp_mode: LINEAR
    }
  }
  data_param {
    source: "examples/VOC0712/VOC0712_test_lmdb"
    batch_size: 8
    backend: LMDB
  }
  annotated_data_param {
    batch_sampler {
    }
    label_map_file: "data/VOC0712/labelmap_voc.prototxt"
  }
}
layer {
  name: "conv1_1"
  type: "Convolution"
  bottom: "data"
  top: "conv1_1"
  param {
    lr_mult: 1
    decay_mult: 1
  }
  param {
    lr_mult: 2
    decay_mult: 0
  }
  convolution_param {
    num_output: 64
    pad: 1
    kernel_size: 3
    weight_filler {
      type: "xavier"
    }
    bias_filler {
      type: "constant"
      value: 0
    }
  }
}
layer {
  name: "relu1_1"
  type: "ReLU"
  bottom: "conv1_1"
  top: "conv1_1"
}
layer {
  name: "conv1_2"
  type: "Convolution"
  bottom: "conv1_1"
  top: "conv1_2"
  param {
    lr_mult: 1
    decay_mult: 1
  }
  param {
    lr_mult: 2
    decay_mult: 0
  }
  convolution_param {
    num_output: 64
    pad: 1
    kernel_size: 3
    weight_filler {
      type: "xavier"
    }
    bias_filler {
      type: "constant"
      value: 0
    }
  }
}
layer {
  name: "relu1_2"
  type: "ReLU"
  bottom: "conv1_2"
  top: "conv1_2"
}
layer {
  name: "pool1"
  type: "Pooling"
  bottom: "conv1_2"
  top: "pool1"
  pooling_param {
    pool: MAX
    kernel_size: 2
    stride: 2
  }
}
layer {
  name: "conv2_1"
  type: "Convolution"
  bottom: "pool1"
  top: "conv2_1"
  param {
    lr_mult: 1
    decay_mult: 1
  }
  param {
    lr_mult: 2
    decay_mult: 0
  }
  convolution_param {
    num_output: 128
    pad: 1
    kernel_size: 3
    weight_filler {
      type: "xavier"
    }
    bias_filler {
      type: "constant"
      value: 0
    }
  }
}
layer {
  name: "relu2_1"
  type: "ReLU"
  bottom: "conv2_1"
  top: "conv2_1"
}
layer {
  name: "conv2_2"
  type: "Convolution"
  bottom: "conv2_1"
  top: "conv2_2"
  param {
    lr_mult: 1
    decay_mult: 1
  }
  param {
    lr_mult: 2
    decay_mult: 0
  }
  convolution_param {
    num_output: 128
    pad: 1
    kernel_size: 3
    weight_filler {
      type: "xavier"
    }
    bias_filler {
      type: "constant"
      value: 0
    }
  }
}
layer {
  name: "relu2_2"
  type: "ReLU"
  bottom: "conv2_2"
  top: "conv2_2"
}
layer {
  name: "pool2"
  type: "Pooling"
  bottom: "conv2_2"
  top: "pool2"
  pooling_param {
    pool: MAX
    kernel_size: 2
    stride: 2
  }
}
layer {
  name: "conv3_1"
  type: "Convolution"
  bottom: "pool2"
  top: "conv3_1"
  param {
    lr_mult: 1
    decay_mult: 1
  }
  param {
    lr_mult: 2
    decay_mult: 0
  }
  convolution_param {
    num_output: 256
    pad: 1
    kernel_size: 3
    weight_filler {
      type: "xavier"
    }
    bias_filler {
      type: "constant"
      value: 0
    }
  }
}
layer {
  name: "relu3_1"
  type: "ReLU"
  bottom: "conv3_1"
  top: "conv3_1"
}
layer {
  name: "conv3_2"
  type: "Convolution"
  bottom: "conv3_1"
  top: "conv3_2"
  param {
    lr_mult: 1
    decay_mult: 1
  }
  param {
    lr_mult: 2
    decay_mult: 0
  }
  convolution_param {
    num_output: 256
    pad: 1
    kernel_size: 3
    weight_filler {
      type: "xavier"
    }
    bias_filler {
      type: "constant"
      value: 0
    }
  }
}
layer {
  name: "relu3_2"
  type: "ReLU"
  bottom: "conv3_2"
  top: "conv3_2"
}
layer {
  name: "conv3_3"
  type: "Convolution"
  bottom: "conv3_2"
  top: "conv3_3"
  param {
    lr_mult: 1
    decay_mult: 1
  }
  param {
    lr_mult: 2
    decay_mult: 0
  }
  convolution_param {
    num_output: 256
    pad: 1
    kernel_size: 3
    weight_filler {
      type: "xavier"
    }
    bias_filler {
      type: "constant"
      value: 0
    }
  }
}
layer {
  name: "relu3_3"
  type: "ReLU"
  bottom: "conv3_3"
  top: "conv3_3"
}
layer {
  name: "pool3"
  type: "Pooling"
  bottom: "conv3_3"
  top: "pool3"
  pooling_param {
    pool: MAX
    kernel_size: 2
    stride: 2
  }
}
layer {
  name: "conv4_1"
  type: "Convolution"
  bottom: "pool3"
  top: "conv4_1"
  param {
    lr_mult: 1
    decay_mult: 1
  }
  param {
    lr_mult: 2
    decay_mult: 0
  }
  convolution_param {
    num_output: 512
    pad: 1
    kernel_size: 3
    weight_filler {
      type: "xavier"
    }
    bias_filler {
      type: "constant"
      value: 0
    }
  }
}
layer {
  name: "relu4_1"
  type: "ReLU"
  bottom: "conv4_1"
  top: "conv4_1"
}
layer {
  name: "conv4_2"
  type: "Convolution"
  bottom: "conv4_1"
  top: "conv4_2"
  param {
    lr_mult: 1
    decay_mult: 1
  }
  param {
    lr_mult: 2
    decay_mult: 0
  }
  convolution_param {
    num_output: 512
    pad: 1
    kernel_size: 3
    weight_filler {
      type: "xavier"
    }
    bias_filler {
      type: "constant"
      value: 0
    }
  }
}
layer {
  name: "relu4_2"
  type: "ReLU"
  bottom: "conv4_2"
  top: "conv4_2"
}
layer {
  name: "conv4_3"
  type: "Convolution"
  bottom: "conv4_2"
  top: "conv4_3"
  param {
    lr_mult: 1
    decay_mult: 1
  }
  param {
    lr_mult: 2
    decay_mult: 0
  }
  convolution_param {
    num_output: 512
    pad: 1
    kernel_size: 3
    weight_filler {
      type: "xavier"
    }
    bias_filler {
      type: "constant"
      value: 0
    }
  }
}
layer {
  name: "relu4_3"
  type: "ReLU"
  bottom: "conv4_3"
  top: "conv4_3"
}
layer {
  name: "pool4"
  type: "Pooling"
  bottom: "conv4_3"
  top: "pool4"
  pooling_param {
    pool: MAX
    kernel_size: 2
    stride: 2
  }
}
layer {
  name: "conv5_1"
  type: "Convolution"
  bottom: "pool4"
  top: "conv5_1"
  param {
    lr_mult: 1
    decay_mult: 1
  }
  param {
    lr_mult: 2
    decay_mult: 0
  }
  convolution_param {
    num_output: 512
    pad: 1
    kernel_size: 3
    weight_filler {
      type: "xavier"
    }
    bias_filler {
      type: "constant"
      value: 0
    }
    dilation: 1
  }
}
layer {
  name: "relu5_1"
  type: "ReLU"
  bottom: "conv5_1"
  top: "conv5_1"
}
layer {
  name: "conv5_2"
  type: "Convolution"
  bottom: "conv5_1"
  top: "conv5_2"
  param {
    lr_mult: 1
    decay_mult: 1
  }
  param {
    lr_mult: 2
    decay_mult: 0
  }
  convolution_param {
    num_output: 512
    pad: 1
    kernel_size: 3
    weight_filler {
      type: "xavier"
    }
    bias_filler {
      type: "constant"
      value: 0
    }
    dilation: 1
  }
}
layer {
  name: "relu5_2"
  type: "ReLU"
  bottom: "conv5_2"
  top: "conv5_2"
}
layer {
  name: "conv5_3"
  type: "Convolution"
  bottom: "conv5_2"
  top: "conv5_3"
  param {
    lr_mult: 1
    decay_mult: 1
  }
  param {
    lr_mult: 2
    decay_mult: 0
  }
  convolution_param {
    num_output: 512
    pad: 1
    kernel_size: 3
    weight_filler {
      type: "xavier"
    }
    bias_filler {
      type: "constant"
      value: 0
    }
    dilation: 1
  }
}
layer {
  name: "relu5_3"
  type: "ReLU"
  bottom: "conv5_3"
  top: "conv5_3"
}
layer {
  name: "pool5"
  type: "Pooling"
  bottom: "conv5_3"
  top: "pool5"
  pooling_param {
    pool: MAX
    kernel_size: 3
    stride: 1
    pad: 1
  }
}
layer {
  name: "fc6"
  type: "Convolution"
  bottom: "pool5"
  top: "fc6"
  param {
    lr_mult: 1
    decay_mult: 1
  }
  param {
    lr_mult: 2
    decay_mult: 0
  }
  convolution_param {
    num_output: 1024
    pad: 6
    kernel_size: 3
    weight_filler {
      type: "xavier"
    }
    bias_filler {
      type: "constant"
      value: 0
    }
    dilation: 6
  }
}
layer {
  name: "relu6"
  type: "ReLU"
  bottom: "fc6"
  top: "fc6"
}
layer {
  name: "fc7"
  type: "Convolution"
  bottom: "fc6"
  top: "fc7"
  param {
    lr_mult: 1
    decay_mult: 1
  }
  param {
    lr_mult: 2
    decay_mult: 0
  }
  convolution_param {
    num_output: 1024
    kernel_size: 1
    weight_filler {
      type: "xavier"
    }
    bias_filler {
      type: "constant"
      value: 0
    }
  }
}
layer {
  name: "relu7"
  type: "ReLU"
  bottom: "fc7"
  top: "fc7"
}
layer {
  name: "conv6_1"
  type: "Convolution"
  bottom: "fc7"
  top: "conv6_1"
  param {
    lr_mult: 1
    decay_mult: 1
  }
  param {
    lr_mult: 2
    decay_mult: 0
  }
  convolution_param {
    num_output: 256
    pad: 0
    kernel_size: 1
    stride: 1
    weight_filler {
      type: "xavier"
    }
    bias_filler {
      type: "constant"
      value: 0
    }
  }
}
layer {
  name: "conv6_1_relu"
  type: "ReLU"
  bottom: "conv6_1"
  top: "conv6_1"
}
layer {
  name: "conv6_2"
  type: "Convolution"
  bottom: "conv6_1"
  top: "conv6_2"
  param {
    lr_mult: 1
    decay_mult: 1
  }
  param {
    lr_mult: 2
    decay_mult: 0
  }
  convolution_param {
    num_output: 512
    pad: 1
    kernel_size: 3
    stride: 2
    weight_filler {
      type: "xavier"
    }
    bias_filler {
      type: "constant"
      value: 0
    }
  }
}
layer {
  name: "conv6_2_relu"
  type: "ReLU"
  bottom: "conv6_2"
  top: "conv6_2"
}
layer {
  name: "conv7_1"
  type: "Convolution"
  bottom: "conv6_2"
  top: "conv7_1"
  param {
    lr_mult: 1
    decay_mult: 1
  }
  param {
    lr_mult: 2
    decay_mult: 0
  }
  convolution_param {
    num_output: 128
    pad: 0
    kernel_size: 1
    stride: 1
    weight_filler {
      type: "xavier"
    }
    bias_filler {
      type: "constant"
      value: 0
    }
  }
}
layer {
  name: "conv7_1_relu"
  type: "ReLU"
  bottom: "conv7_1"
  top: "conv7_1"
}
layer {
  name: "conv7_2"
  type: "Convolution"
  bottom: "conv7_1"
  top: "conv7_2"
  param {
    lr_mult: 1
    decay_mult: 1
  }
  param {
    lr_mult: 2
    decay_mult: 0
  }
  convolution_param {
    num_output: 256
    pad: 1
    kernel_size: 3
    stride: 2
    weight_filler {
      type: "xavier"
    }
    bias_filler {
      type: "constant"
      value: 0
    }
  }
}
layer {
  name: "conv7_2_relu"
  type: "ReLU"
  bottom: "conv7_2"
  top: "conv7_2"
}
layer {
  name: "conv8_1"
  type: "Convolution"
  bottom: "conv7_2"
  top: "conv8_1"
  param {
    lr_mult: 1
    decay_mult: 1
  }
  param {
    lr_mult: 2
    decay_mult: 0
  }
  convolution_param {
    num_output: 128
    pad: 0
    kernel_size: 1
    stride: 1
    weight_filler {
      type: "xavier"
    }
    bias_filler {
      type: "constant"
      value: 0
    }
  }
}
layer {
  name: "conv8_1_relu"
  type: "ReLU"
  bottom: "conv8_1"
  top: "conv8_1"
}
layer {
  name: "conv8_2"
  type: "Convolution"
  bottom: "conv8_1"
  top: "conv8_2"
  param {
    lr_mult: 1
    decay_mult: 1
  }
  param {
    lr_mult: 2
    decay_mult: 0
  }
  convolution_param {
    num_output: 256
    pad: 0
    kernel_size: 3
    stride: 1
    weight_filler {
      type: "xavier"
    }
    bias_filler {
      type: "constant"
      value: 0
    }
  }
}
layer {
  name: "conv8_2_relu"
  type: "ReLU"
  bottom: "conv8_2"
  top: "conv8_2"
}
layer {
  name: "conv9_1"
  type: "Convolution"
  bottom: "conv8_2"
  top: "conv9_1"
  param {
    lr_mult: 1
    decay_mult: 1
  }
  param {
    lr_mult: 2
    decay_mult: 0
  }
  convolution_param {
    num_output: 128
    pad: 0
    kernel_size: 1
    stride: 1
    weight_filler {
      type: "xavier"
    }
    bias_filler {
      type: "constant"
      value: 0
    }
  }
}
layer {
  name: "conv9_1_relu"
  type: "ReLU"
  bottom: "conv9_1"
  top: "conv9_1"
}
layer {
  name: "conv9_2"
  type: "Convolution"
  bottom: "conv9_1"
  top: "conv9_2"
  param {
    lr_mult: 1
    decay_mult: 1
  }
  param {
    lr_mult: 2
    decay_mult: 0
  }
  convolution_param {
    num_output: 256
    pad: 0
    kernel_size: 3
    stride: 1
    weight_filler {
      type: "xavier"
    }
    bias_filler {
      type: "constant"
      value: 0
    }
  }
}
layer {
  name: "conv9_2_relu"
  type: "ReLU"
  bottom: "conv9_2"
  top: "conv9_2"
}
layer {
  name: "conv4_3_norm"
  type: "Normalize"
  bottom: "conv4_3"
  top: "conv4_3_norm"
  norm_param {
    across_spatial: false
    scale_filler {
      type: "constant"
      value: 20
    }
    channel_shared: false
  }
}
layer {
  name: "conv4_3_norm_mbox_loc"
  type: "Convolution"
  bottom: "conv4_3_norm"
  top: "conv4_3_norm_mbox_loc"
  param {
    lr_mult: 1
    decay_mult: 1
  }
  param {
    lr_mult: 2
    decay_mult: 0
  }
  convolution_param {
    num_output: 16
    pad: 1
    kernel_size: 3
    stride: 1
    weight_filler {
      type: "xavier"
    }
    bias_filler {
      type: "constant"
      value: 0
    }
  }
}
layer {
  name: "conv4_3_norm_mbox_loc_perm"
  type: "Permute"
  bottom: "conv4_3_norm_mbox_loc"
  top: "conv4_3_norm_mbox_loc_perm"
  permute_param {
    order: 0
    order: 2
    order: 3
    order: 1
  }
}
layer {
  name: "conv4_3_norm_mbox_loc_flat"
  type: "Flatten"
  bottom: "conv4_3_norm_mbox_loc_perm"
  top: "conv4_3_norm_mbox_loc_flat"
  flatten_param {
    axis: 1
  }
}
layer {
  name: "conv4_3_norm_mbox_conf"
  type: "Convolution"
  bottom: "conv4_3_norm"
  top: "conv4_3_norm_mbox_conf"
  param {
    lr_mult: 1
    decay_mult: 1
  }
  param {
    lr_mult: 2
    decay_mult: 0
  }
  convolution_param {
    num_output: 84
    pad: 1
    kernel_size: 3
    stride: 1
    weight_filler {
      type: "xavier"
    }
    bias_filler {
      type: "constant"
      value: 0
    }
  }
}
layer {
  name: "conv4_3_norm_mbox_conf_perm"
  type: "Permute"
  bottom: "conv4_3_norm_mbox_conf"
  top: "conv4_3_norm_mbox_conf_perm"
  permute_param {
    order: 0
    order: 2
    order: 3
    order: 1
  }
}
layer {
  name: "conv4_3_norm_mbox_conf_flat"
  type: "Flatten"
  bottom: "conv4_3_norm_mbox_conf_perm"
  top: "conv4_3_norm_mbox_conf_flat"
  flatten_param {
    axis: 1
  }
}
layer {
  name: "conv4_3_norm_mbox_priorbox"
  type: "PriorBox"
  bottom: "conv4_3_norm"
  bottom: "data"
  top: "conv4_3_norm_mbox_priorbox"
  prior_box_param {
    min_size: 30
    max_size: 60
    aspect_ratio: 2
    flip: true
    clip: false
    variance: 0.1
    variance: 0.1
    variance: 0.2
    variance: 0.2
    step: 8
    offset: 0.5
  }
}
layer {
  name: "fc7_mbox_loc"
  type: "Convolution"
  bottom: "fc7"
  top: "fc7_mbox_loc"
  param {
    lr_mult: 1
    decay_mult: 1
  }
  param {
    lr_mult: 2
    decay_mult: 0
  }
  convolution_param {
    num_output: 24
    pad: 1
    kernel_size: 3
    stride: 1
    weight_filler {
      type: "xavier"
    }
    bias_filler {
      type: "constant"
      value: 0
    }
  }
}
layer {
  name: "fc7_mbox_loc_perm"
  type: "Permute"
  bottom: "fc7_mbox_loc"
  top: "fc7_mbox_loc_perm"
  permute_param {
    order: 0
    order: 2
    order: 3
    order: 1
  }
}
layer {
  name: "fc7_mbox_loc_flat"
  type: "Flatten"
  bottom: "fc7_mbox_loc_perm"
  top: "fc7_mbox_loc_flat"
  flatten_param {
    axis: 1
  }
}
layer {
  name: "fc7_mbox_conf"
  type: "Convolution"
  bottom: "fc7"
  top: "fc7_mbox_conf"
  param {
    lr_mult: 1
    decay_mult: 1
  }
  param {
    lr_mult: 2
    decay_mult: 0
  }
  convolution_param {
    num_output: 126
    pad: 1
    kernel_size: 3
    stride: 1
    weight_filler {
      type: "xavier"
    }
    bias_filler {
      type: "constant"
      value: 0
    }
  }
}
layer {
  name: "fc7_mbox_conf_perm"
  type: "Permute"
  bottom: "fc7_mbox_conf"
  top: "fc7_mbox_conf_perm"
  permute_param {
    order: 0
    order: 2
    order: 3
    order: 1
  }
}
layer {
  name: "fc7_mbox_conf_flat"
  type: "Flatten"
  bottom: "fc7_mbox_conf_perm"
  top: "fc7_mbox_conf_flat"
  flatten_param {
    axis: 1
  }
}
layer {
  name: "fc7_mbox_priorbox"
  type: "PriorBox"
  bottom: "fc7"
  bottom: "data"
  top: "fc7_mbox_priorbox"
  prior_box_param {
    min_size: 60
    max_size: 111
    aspect_ratio: 2
    aspect_ratio: 3
    flip: true
    clip: false
    variance: 0.1
    variance: 0.1
    variance: 0.2
    variance: 0.2
    step: 16
    offset: 0.5
  }
}
layer {
  name: "conv6_2_mbox_loc"
  type: "Convolution"
  bottom: "conv6_2"
  top: "conv6_2_mbox_loc"
  param {
    lr_mult: 1
    decay_mult: 1
  }
  param {
    lr_mult: 2
    decay_mult: 0
  }
  convolution_param {
    num_output: 24
    pad: 1
    kernel_size: 3
    stride: 1
    weight_filler {
      type: "xavier"
    }
    bias_filler {
      type: "constant"
      value: 0
    }
  }
}
layer {
  name: "conv6_2_mbox_loc_perm"
  type: "Permute"
  bottom: "conv6_2_mbox_loc"
  top: "conv6_2_mbox_loc_perm"
  permute_param {
    order: 0
    order: 2
    order: 3
    order: 1
  }
}
layer {
  name: "conv6_2_mbox_loc_flat"
  type: "Flatten"
  bottom: "conv6_2_mbox_loc_perm"
  top: "conv6_2_mbox_loc_flat"
  flatten_param {
    axis: 1
  }
}
layer {
  name: "conv6_2_mbox_conf"
  type: "Convolution"
  bottom: "conv6_2"
  top: "conv6_2_mbox_conf"
  param {
    lr_mult: 1
    decay_mult: 1
  }
  param {
    lr_mult: 2
    decay_mult: 0
  }
  convolution_param {
    num_output: 126
    pad: 1
    kernel_size: 3
    stride: 1
    weight_filler {
      type: "xavier"
    }
    bias_filler {
      type: "constant"
      value: 0
    }
  }
}
layer {
  name: "conv6_2_mbox_conf_perm"
  type: "Permute"
  bottom: "conv6_2_mbox_conf"
  top: "conv6_2_mbox_conf_perm"
  permute_param {
    order: 0
    order: 2
    order: 3
    order: 1
  }
}
layer {
  name: "conv6_2_mbox_conf_flat"
  type: "Flatten"
  bottom: "conv6_2_mbox_conf_perm"
  top: "conv6_2_mbox_conf_flat"
  flatten_param {
    axis: 1
  }
}
layer {
  name: "conv6_2_mbox_priorbox"
  type: "PriorBox"
  bottom: "conv6_2"
  bottom: "data"
  top: "conv6_2_mbox_priorbox"
  prior_box_param {
    min_size: 111
    max_size: 162
    aspect_ratio: 2
    aspect_ratio: 3
    flip: true
    clip: false
    variance: 0.1
    variance: 0.1
    variance: 0.2
    variance: 0.2
    step: 32
    offset: 0.5
  }
}
layer {
  name: "conv7_2_mbox_loc"
  type: "Convolution"
  bottom: "conv7_2"
  top: "conv7_2_mbox_loc"
  param {
    lr_mult: 1
    decay_mult: 1
  }
  param {
    lr_mult: 2
    decay_mult: 0
  }
  convolution_param {
    num_output: 24
    pad: 1
    kernel_size: 3
    stride: 1
    weight_filler {
      type: "xavier"
    }
    bias_filler {
      type: "constant"
      value: 0
    }
  }
}
layer {
  name: "conv7_2_mbox_loc_perm"
  type: "Permute"
  bottom: "conv7_2_mbox_loc"
  top: "conv7_2_mbox_loc_perm"
  permute_param {
    order: 0
    order: 2
    order: 3
    order: 1
  }
}
layer {
  name: "conv7_2_mbox_loc_flat"
  type: "Flatten"
  bottom: "conv7_2_mbox_loc_perm"
  top: "conv7_2_mbox_loc_flat"
  flatten_param {
    axis: 1
  }
}
layer {
  name: "conv7_2_mbox_conf"
  type: "Convolution"
  bottom: "conv7_2"
  top: "conv7_2_mbox_conf"
  param {
    lr_mult: 1
    decay_mult: 1
  }
  param {
    lr_mult: 2
    decay_mult: 0
  }
  convolution_param {
    num_output: 126
    pad: 1
    kernel_size: 3
    stride: 1
    weight_filler {
      type: "xavier"
    }
    bias_filler {
      type: "constant"
      value: 0
    }
  }
}
layer {
  name: "conv7_2_mbox_conf_perm"
  type: "Permute"
  bottom: "conv7_2_mbox_conf"
  top: "conv7_2_mbox_conf_perm"
  permute_param {
    order: 0
    order: 2
    order: 3
    order: 1
  }
}
layer {
  name: "conv7_2_mbox_conf_flat"
  type: "Flatten"
  bottom: "conv7_2_mbox_conf_perm"
  top: "conv7_2_mbox_conf_flat"
  flatten_param {
    axis: 1
  }
}
layer {
  name: "conv7_2_mbox_priorbox"
  type: "PriorBox"
  bottom: "conv7_2"
  bottom: "data"
  top: "conv7_2_mbox_priorbox"
  prior_box_param {
    min_size: 162
    max_size: 213
    aspect_ratio: 2
    aspect_ratio: 3
    flip: true
    clip: false
    variance: 0.1
    variance: 0.1
    variance: 0.2
    variance: 0.2
    step: 64
    offset: 0.5
  }
}
layer {
  name: "conv8_2_mbox_loc"
  type: "Convolution"
  bottom: "conv8_2"
  top: "conv8_2_mbox_loc"
  param {
    lr_mult: 1
    decay_mult: 1
  }
  param {
    lr_mult: 2
    decay_mult: 0
  }
  convolution_param {
    num_output: 16
    pad: 1
    kernel_size: 3
    stride: 1
    weight_filler {
      type: "xavier"
    }
    bias_filler {
      type: "constant"
      value: 0
    }
  }
}
layer {
  name: "conv8_2_mbox_loc_perm"
  type: "Permute"
  bottom: "conv8_2_mbox_loc"
  top: "conv8_2_mbox_loc_perm"
  permute_param {
    order: 0
    order: 2
    order: 3
    order: 1
  }
}
layer {
  name: "conv8_2_mbox_loc_flat"
  type: "Flatten"
  bottom: "conv8_2_mbox_loc_perm"
  top: "conv8_2_mbox_loc_flat"
  flatten_param {
    axis: 1
  }
}
layer {
  name: "conv8_2_mbox_conf"
  type: "Convolution"
  bottom: "conv8_2"
  top: "conv8_2_mbox_conf"
  param {
    lr_mult: 1
    decay_mult: 1
  }
  param {
    lr_mult: 2
    decay_mult: 0
  }
  convolution_param {
    num_output: 84
    pad: 1
    kernel_size: 3
    stride: 1
    weight_filler {
      type: "xavier"
    }
    bias_filler {
      type: "constant"
      value: 0
    }
  }
}
layer {
  name: "conv8_2_mbox_conf_perm"
  type: "Permute"
  bottom: "conv8_2_mbox_conf"
  top: "conv8_2_mbox_conf_perm"
  permute_param {
    order: 0
    order: 2
    order: 3
    order: 1
  }
}
layer {
  name: "conv8_2_mbox_conf_flat"
  type: "Flatten"
  bottom: "conv8_2_mbox_conf_perm"
  top: "conv8_2_mbox_conf_flat"
  flatten_param {
    axis: 1
  }
}
layer {
  name: "conv8_2_mbox_priorbox"
  type: "PriorBox"
  bottom: "conv8_2"
  bottom: "data"
  top: "conv8_2_mbox_priorbox"
  prior_box_param {
    min_size: 213
    max_size: 264
    aspect_ratio: 2
    flip: true
    clip: false
    variance: 0.1
    variance: 0.1
    variance: 0.2
    variance: 0.2
    step: 100
    offset: 0.5
  }
}
layer {
  name: "conv9_2_mbox_loc"
  type: "Convolution"
  bottom: "conv9_2"
  top: "conv9_2_mbox_loc"
  param {
    lr_mult: 1
    decay_mult: 1
  }
  param {
    lr_mult: 2
    decay_mult: 0
  }
  convolution_param {
    num_output: 16
    pad: 1
    kernel_size: 3
    stride: 1
    weight_filler {
      type: "xavier"
    }
    bias_filler {
      type: "constant"
      value: 0
    }
  }
}
layer {
  name: "conv9_2_mbox_loc_perm"
  type: "Permute"
  bottom: "conv9_2_mbox_loc"
  top: "conv9_2_mbox_loc_perm"
  permute_param {
    order: 0
    order: 2
    order: 3
    order: 1
  }
}
layer {
  name: "conv9_2_mbox_loc_flat"
  type: "Flatten"
  bottom: "conv9_2_mbox_loc_perm"
  top: "conv9_2_mbox_loc_flat"
  flatten_param {
    axis: 1
  }
}
layer {
  name: "conv9_2_mbox_conf"
  type: "Convolution"
  bottom: "conv9_2"
  top: "conv9_2_mbox_conf"
  param {
    lr_mult: 1
    decay_mult: 1
  }
  param {
    lr_mult: 2
    decay_mult: 0
  }
  convolution_param {
    num_output: 84
    pad: 1
    kernel_size: 3
    stride: 1
    weight_filler {
      type: "xavier"
    }
    bias_filler {
      type: "constant"
      value: 0
    }
  }
}
layer {
  name: "conv9_2_mbox_conf_perm"
  type: "Permute"
  bottom: "conv9_2_mbox_conf"
  top: "conv9_2_mbox_conf_perm"
  permute_param {
    order: 0
    order: 2
    order: 3
    order: 1
  }
}
layer {
  name: "conv9_2_mbox_conf_flat"
  type: "Flatten"
  bottom: "conv9_2_mbox_conf_perm"
  top: "conv9_2_mbox_conf_flat"
  flatten_param {
    axis: 1
  }
}
layer {
  name: "conv9_2_mbox_priorbox"
  type: "PriorBox"
  bottom: "conv9_2"
  bottom: "data"
  top: "conv9_2_mbox_priorbox"
  prior_box_param {
    min_size: 264
    max_size: 315
    aspect_ratio: 2
    flip: true
    clip: false
    variance: 0.1
    variance: 0.1
    variance: 0.2
    variance: 0.2
    step: 300
    offset: 0.5
  }
}
layer {
  name: "mbox_loc"
  type: "Concat"
  bottom: "conv4_3_norm_mbox_loc_flat"
  bottom: "fc7_mbox_loc_flat"
  bottom: "conv6_2_mbox_loc_flat"
  bottom: "conv7_2_mbox_loc_flat"
  bottom: "conv8_2_mbox_loc_flat"
  bottom: "conv9_2_mbox_loc_flat"
  top: "mbox_loc"
  concat_param {
    axis: 1
  }
}
layer {
  name: "mbox_conf"
  type: "Concat"
  bottom: "conv4_3_norm_mbox_conf_flat"
  bottom: "fc7_mbox_conf_flat"
  bottom: "conv6_2_mbox_conf_flat"
  bottom: "conv7_2_mbox_conf_flat"
  bottom: "conv8_2_mbox_conf_flat"
  bottom: "conv9_2_mbox_conf_flat"
  top: "mbox_conf"
  concat_param {
    axis: 1
  }
}
layer {
  name: "mbox_priorbox"
  type: "Concat"
  bottom: "conv4_3_norm_mbox_priorbox"
  bottom: "fc7_mbox_priorbox"
  bottom: "conv6_2_mbox_priorbox"
  bottom: "conv7_2_mbox_priorbox"
  bottom: "conv8_2_mbox_priorbox"
  bottom: "conv9_2_mbox_priorbox"
  top: "mbox_priorbox"
  concat_param {
    axis: 2
  }
}
layer {
  name: "mbox_conf_reshape"
  type: "Reshape"
  bottom: "mbox_conf"
  top: "mbox_conf_reshape"
  reshape_param {
    shape {
      dim: 0
      dim: -1
      dim: 21
    }
  }
}
layer {
  name: "mbox_conf_softmax"
  type: "Softmax"
  bottom: "mbox_conf_reshape"
  top: "mbox_conf_softmax"
  softmax_param {
    axis: 2
  }
}
layer {
  name: "mbox_conf_flatten"
  type: "Flatten"
  bottom: "mbox_conf_softmax"
  top: "mbox_conf_flatten"
  flatten_param {
    axis: 1
  }
}
layer {
  name: "detection_out"
  type: "DetectionOutput"
  bottom: "mbox_loc"
  bottom: "mbox_conf_flatten"
  bottom: "mbox_priorbox"
  top: "detection_out"
  include {
    phase: TEST
  }
  detection_output_param {
    num_classes: 21
    share_location: true
    background_label_id: 0
    nms_param {
      nms_threshold: 0.45
      top_k: 400
    }
    save_output_param {
      output_directory: "/home/itlab_sparse_mini/data/VOCdevkit/results/VOC2007/SSD_300x300/Main"
      output_name_prefix: "comp4_det_test_"
      output_format: "VOC"
      label_map_file: "data/VOC0712/labelmap_voc.prototxt"
      name_size_file: "data/VOC0712/test_name_size.txt"
      num_test_image: 4952
    }
    code_type: CENTER_SIZE
    keep_top_k: 200
    confidence_threshold: 0.01
  }
}
layer {
  name: "detection_eval"
  type: "DetectionEvaluate"
  bottom: "detection_out"
  bottom: "label"
  top: "detection_eval"
  include {
    phase: TEST
  }
  detection_evaluate_param {
    num_classes: 21
    background_label_id: 0
    overlap_threshold: 0.5
    evaluate_difficult_gt: false
    name_size_file: "data/VOC0712/test_name_size.txt"
  }
}
I0403 21:23:17.114523 13700 layer_factory.hpp:77] Creating layer data
I0403 21:23:17.115005 13700 net.cpp:100] Creating Layer data
I0403 21:23:17.115021 13700 net.cpp:408] data -> data
I0403 21:23:17.115034 13700 net.cpp:408] data -> label
I0403 21:23:17.118598 13713 db_lmdb.cpp:35] Opened lmdb examples/VOC0712/VOC0712_test_lmdb
I0403 21:23:17.121975 13700 annotated_data_layer.cpp:62] output data size: 8,3,300,300
I0403 21:23:17.140990 13700 net.cpp:150] Setting up data
I0403 21:23:17.141026 13700 net.cpp:157] Top shape: 8 3 300 300 (2160000)
I0403 21:23:17.141033 13700 net.cpp:157] Top shape: 1 1 2 8 (16)
I0403 21:23:17.141038 13700 net.cpp:165] Memory required for data: 8640064
I0403 21:23:17.141046 13700 layer_factory.hpp:77] Creating layer data_data_0_split
I0403 21:23:17.141067 13700 net.cpp:100] Creating Layer data_data_0_split
I0403 21:23:17.141072 13700 net.cpp:434] data_data_0_split <- data
I0403 21:23:17.141080 13700 net.cpp:408] data_data_0_split -> data_data_0_split_0
I0403 21:23:17.141090 13700 net.cpp:408] data_data_0_split -> data_data_0_split_1
I0403 21:23:17.141098 13700 net.cpp:408] data_data_0_split -> data_data_0_split_2
I0403 21:23:17.141106 13700 net.cpp:408] data_data_0_split -> data_data_0_split_3
I0403 21:23:17.141113 13700 net.cpp:408] data_data_0_split -> data_data_0_split_4
I0403 21:23:17.141120 13700 net.cpp:408] data_data_0_split -> data_data_0_split_5
I0403 21:23:17.141127 13700 net.cpp:408] data_data_0_split -> data_data_0_split_6
I0403 21:23:17.141392 13700 net.cpp:150] Setting up data_data_0_split
I0403 21:23:17.141405 13700 net.cpp:157] Top shape: 8 3 300 300 (2160000)
I0403 21:23:17.141424 13700 net.cpp:157] Top shape: 8 3 300 300 (2160000)
I0403 21:23:17.141430 13700 net.cpp:157] Top shape: 8 3 300 300 (2160000)
I0403 21:23:17.141436 13700 net.cpp:157] Top shape: 8 3 300 300 (2160000)
I0403 21:23:17.141441 13700 net.cpp:157] Top shape: 8 3 300 300 (2160000)
I0403 21:23:17.141446 13700 net.cpp:157] Top shape: 8 3 300 300 (2160000)
I0403 21:23:17.141453 13700 net.cpp:157] Top shape: 8 3 300 300 (2160000)
I0403 21:23:17.141456 13700 net.cpp:165] Memory required for data: 69120064
I0403 21:23:17.141461 13700 layer_factory.hpp:77] Creating layer conv1_1
I0403 21:23:17.141485 13700 net.cpp:100] Creating Layer conv1_1
I0403 21:23:17.141491 13700 net.cpp:434] conv1_1 <- data_data_0_split_0
I0403 21:23:17.141500 13700 net.cpp:408] conv1_1 -> conv1_1
I0403 21:23:17.141901 13700 net.cpp:150] Setting up conv1_1
I0403 21:23:17.141914 13700 net.cpp:157] Top shape: 8 64 300 300 (46080000)
I0403 21:23:17.141932 13700 net.cpp:165] Memory required for data: 253440064
I0403 21:23:17.141943 13700 layer_factory.hpp:77] Creating layer relu1_1
I0403 21:23:17.141952 13700 net.cpp:100] Creating Layer relu1_1
I0403 21:23:17.141957 13700 net.cpp:434] relu1_1 <- conv1_1
I0403 21:23:17.141963 13700 net.cpp:395] relu1_1 -> conv1_1 (in-place)
I0403 21:23:17.141970 13700 net.cpp:150] Setting up relu1_1
I0403 21:23:17.141976 13700 net.cpp:157] Top shape: 8 64 300 300 (46080000)
I0403 21:23:17.141980 13700 net.cpp:165] Memory required for data: 437760064
I0403 21:23:17.141984 13700 layer_factory.hpp:77] Creating layer conv1_2
I0403 21:23:17.141994 13700 net.cpp:100] Creating Layer conv1_2
I0403 21:23:17.141999 13700 net.cpp:434] conv1_2 <- conv1_1
I0403 21:23:17.142006 13700 net.cpp:408] conv1_2 -> conv1_2
I0403 21:23:17.143141 13700 net.cpp:150] Setting up conv1_2
I0403 21:23:17.143157 13700 net.cpp:157] Top shape: 8 64 300 300 (46080000)
I0403 21:23:17.143162 13700 net.cpp:165] Memory required for data: 622080064
I0403 21:23:17.143184 13700 layer_factory.hpp:77] Creating layer relu1_2
I0403 21:23:17.143193 13700 net.cpp:100] Creating Layer relu1_2
I0403 21:23:17.143198 13700 net.cpp:434] relu1_2 <- conv1_2
I0403 21:23:17.143204 13700 net.cpp:395] relu1_2 -> conv1_2 (in-place)
I0403 21:23:17.143213 13700 net.cpp:150] Setting up relu1_2
I0403 21:23:17.143218 13700 net.cpp:157] Top shape: 8 64 300 300 (46080000)
I0403 21:23:17.143223 13700 net.cpp:165] Memory required for data: 806400064
I0403 21:23:17.143227 13700 layer_factory.hpp:77] Creating layer pool1
I0403 21:23:17.143234 13700 net.cpp:100] Creating Layer pool1
I0403 21:23:17.143239 13700 net.cpp:434] pool1 <- conv1_2
I0403 21:23:17.143245 13700 net.cpp:408] pool1 -> pool1
I0403 21:23:17.143330 13700 net.cpp:150] Setting up pool1
I0403 21:23:17.143347 13700 net.cpp:157] Top shape: 8 64 150 150 (11520000)
I0403 21:23:17.143352 13700 net.cpp:165] Memory required for data: 852480064
I0403 21:23:17.143357 13700 layer_factory.hpp:77] Creating layer conv2_1
I0403 21:23:17.143366 13700 net.cpp:100] Creating Layer conv2_1
I0403 21:23:17.143371 13700 net.cpp:434] conv2_1 <- pool1
I0403 21:23:17.143391 13700 net.cpp:408] conv2_1 -> conv2_1
I0403 21:23:17.144166 13700 net.cpp:150] Setting up conv2_1
I0403 21:23:17.144191 13700 net.cpp:157] Top shape: 8 128 150 150 (23040000)
I0403 21:23:17.144196 13700 net.cpp:165] Memory required for data: 944640064
I0403 21:23:17.144207 13700 layer_factory.hpp:77] Creating layer relu2_1
I0403 21:23:17.144214 13700 net.cpp:100] Creating Layer relu2_1
I0403 21:23:17.144219 13700 net.cpp:434] relu2_1 <- conv2_1
I0403 21:23:17.144227 13700 net.cpp:395] relu2_1 -> conv2_1 (in-place)
I0403 21:23:17.144233 13700 net.cpp:150] Setting up relu2_1
I0403 21:23:17.144239 13700 net.cpp:157] Top shape: 8 128 150 150 (23040000)
I0403 21:23:17.144243 13700 net.cpp:165] Memory required for data: 1036800064
I0403 21:23:17.144248 13700 layer_factory.hpp:77] Creating layer conv2_2
I0403 21:23:17.144256 13700 net.cpp:100] Creating Layer conv2_2
I0403 21:23:17.144261 13700 net.cpp:434] conv2_2 <- conv2_1
I0403 21:23:17.144268 13700 net.cpp:408] conv2_2 -> conv2_2
I0403 21:23:17.146136 13700 net.cpp:150] Setting up conv2_2
I0403 21:23:17.146152 13700 net.cpp:157] Top shape: 8 128 150 150 (23040000)
I0403 21:23:17.146168 13700 net.cpp:165] Memory required for data: 1128960064
I0403 21:23:17.146175 13700 layer_factory.hpp:77] Creating layer relu2_2
I0403 21:23:17.146183 13700 net.cpp:100] Creating Layer relu2_2
I0403 21:23:17.146188 13700 net.cpp:434] relu2_2 <- conv2_2
I0403 21:23:17.146194 13700 net.cpp:395] relu2_2 -> conv2_2 (in-place)
I0403 21:23:17.146203 13700 net.cpp:150] Setting up relu2_2
I0403 21:23:17.146214 13700 net.cpp:157] Top shape: 8 128 150 150 (23040000)
I0403 21:23:17.146219 13700 net.cpp:165] Memory required for data: 1221120064
I0403 21:23:17.146224 13700 layer_factory.hpp:77] Creating layer pool2
I0403 21:23:17.146230 13700 net.cpp:100] Creating Layer pool2
I0403 21:23:17.146234 13700 net.cpp:434] pool2 <- conv2_2
I0403 21:23:17.146240 13700 net.cpp:408] pool2 -> pool2
I0403 21:23:17.146286 13700 net.cpp:150] Setting up pool2
I0403 21:23:17.146296 13700 net.cpp:157] Top shape: 8 128 75 75 (5760000)
I0403 21:23:17.146301 13700 net.cpp:165] Memory required for data: 1244160064
I0403 21:23:17.146306 13700 layer_factory.hpp:77] Creating layer conv3_1
I0403 21:23:17.146315 13700 net.cpp:100] Creating Layer conv3_1
I0403 21:23:17.146320 13700 net.cpp:434] conv3_1 <- pool2
I0403 21:23:17.146328 13700 net.cpp:408] conv3_1 -> conv3_1
I0403 21:23:17.149943 13700 net.cpp:150] Setting up conv3_1
I0403 21:23:17.149971 13700 net.cpp:157] Top shape: 8 256 75 75 (11520000)
I0403 21:23:17.149976 13700 net.cpp:165] Memory required for data: 1290240064
I0403 21:23:17.149987 13700 layer_factory.hpp:77] Creating layer relu3_1
I0403 21:23:17.149996 13700 net.cpp:100] Creating Layer relu3_1
I0403 21:23:17.150001 13700 net.cpp:434] relu3_1 <- conv3_1
I0403 21:23:17.150007 13700 net.cpp:395] relu3_1 -> conv3_1 (in-place)
I0403 21:23:17.150015 13700 net.cpp:150] Setting up relu3_1
I0403 21:23:17.150020 13700 net.cpp:157] Top shape: 8 256 75 75 (11520000)
I0403 21:23:17.150025 13700 net.cpp:165] Memory required for data: 1336320064
I0403 21:23:17.150029 13700 layer_factory.hpp:77] Creating layer conv3_2
I0403 21:23:17.150038 13700 net.cpp:100] Creating Layer conv3_2
I0403 21:23:17.150043 13700 net.cpp:434] conv3_2 <- conv3_1
I0403 21:23:17.150049 13700 net.cpp:408] conv3_2 -> conv3_2
I0403 21:23:17.155660 13700 net.cpp:150] Setting up conv3_2
I0403 21:23:17.155688 13700 net.cpp:157] Top shape: 8 256 75 75 (11520000)
I0403 21:23:17.155694 13700 net.cpp:165] Memory required for data: 1382400064
I0403 21:23:17.155701 13700 layer_factory.hpp:77] Creating layer relu3_2
I0403 21:23:17.155709 13700 net.cpp:100] Creating Layer relu3_2
I0403 21:23:17.155714 13700 net.cpp:434] relu3_2 <- conv3_2
I0403 21:23:17.155721 13700 net.cpp:395] relu3_2 -> conv3_2 (in-place)
I0403 21:23:17.155728 13700 net.cpp:150] Setting up relu3_2
I0403 21:23:17.155735 13700 net.cpp:157] Top shape: 8 256 75 75 (11520000)
I0403 21:23:17.155738 13700 net.cpp:165] Memory required for data: 1428480064
I0403 21:23:17.155742 13700 layer_factory.hpp:77] Creating layer conv3_3
I0403 21:23:17.155753 13700 net.cpp:100] Creating Layer conv3_3
I0403 21:23:17.155758 13700 net.cpp:434] conv3_3 <- conv3_2
I0403 21:23:17.155766 13700 net.cpp:408] conv3_3 -> conv3_3
I0403 21:23:17.161505 13700 net.cpp:150] Setting up conv3_3
I0403 21:23:17.161521 13700 net.cpp:157] Top shape: 8 256 75 75 (11520000)
I0403 21:23:17.161538 13700 net.cpp:165] Memory required for data: 1474560064
I0403 21:23:17.161546 13700 layer_factory.hpp:77] Creating layer relu3_3
I0403 21:23:17.161554 13700 net.cpp:100] Creating Layer relu3_3
I0403 21:23:17.161559 13700 net.cpp:434] relu3_3 <- conv3_3
I0403 21:23:17.161566 13700 net.cpp:395] relu3_3 -> conv3_3 (in-place)
I0403 21:23:17.161573 13700 net.cpp:150] Setting up relu3_3
I0403 21:23:17.161579 13700 net.cpp:157] Top shape: 8 256 75 75 (11520000)
I0403 21:23:17.161583 13700 net.cpp:165] Memory required for data: 1520640064
I0403 21:23:17.161587 13700 layer_factory.hpp:77] Creating layer pool3
I0403 21:23:17.161594 13700 net.cpp:100] Creating Layer pool3
I0403 21:23:17.161598 13700 net.cpp:434] pool3 <- conv3_3
I0403 21:23:17.161604 13700 net.cpp:408] pool3 -> pool3
I0403 21:23:17.161648 13700 net.cpp:150] Setting up pool3
I0403 21:23:17.161658 13700 net.cpp:157] Top shape: 8 256 38 38 (2957312)
I0403 21:23:17.161661 13700 net.cpp:165] Memory required for data: 1532469312
I0403 21:23:17.161665 13700 layer_factory.hpp:77] Creating layer conv4_1
I0403 21:23:17.161675 13700 net.cpp:100] Creating Layer conv4_1
I0403 21:23:17.161681 13700 net.cpp:434] conv4_1 <- pool3
I0403 21:23:17.161695 13700 net.cpp:408] conv4_1 -> conv4_1
I0403 21:23:17.172746 13700 net.cpp:150] Setting up conv4_1
I0403 21:23:17.172776 13700 net.cpp:157] Top shape: 8 512 38 38 (5914624)
I0403 21:23:17.172781 13700 net.cpp:165] Memory required for data: 1556127808
I0403 21:23:17.172791 13700 layer_factory.hpp:77] Creating layer relu4_1
I0403 21:23:17.172798 13700 net.cpp:100] Creating Layer relu4_1
I0403 21:23:17.172803 13700 net.cpp:434] relu4_1 <- conv4_1
I0403 21:23:17.172811 13700 net.cpp:395] relu4_1 -> conv4_1 (in-place)
I0403 21:23:17.172819 13700 net.cpp:150] Setting up relu4_1
I0403 21:23:17.172825 13700 net.cpp:157] Top shape: 8 512 38 38 (5914624)
I0403 21:23:17.172829 13700 net.cpp:165] Memory required for data: 1579786304
I0403 21:23:17.172833 13700 layer_factory.hpp:77] Creating layer conv4_2
I0403 21:23:17.172842 13700 net.cpp:100] Creating Layer conv4_2
I0403 21:23:17.172847 13700 net.cpp:434] conv4_2 <- conv4_1
I0403 21:23:17.172855 13700 net.cpp:408] conv4_2 -> conv4_2
I0403 21:23:17.196329 13700 net.cpp:150] Setting up conv4_2
I0403 21:23:17.196357 13700 net.cpp:157] Top shape: 8 512 38 38 (5914624)
I0403 21:23:17.196362 13700 net.cpp:165] Memory required for data: 1603444800
I0403 21:23:17.196380 13700 layer_factory.hpp:77] Creating layer relu4_2
I0403 21:23:17.196391 13700 net.cpp:100] Creating Layer relu4_2
I0403 21:23:17.196398 13700 net.cpp:434] relu4_2 <- conv4_2
I0403 21:23:17.196405 13700 net.cpp:395] relu4_2 -> conv4_2 (in-place)
I0403 21:23:17.196416 13700 net.cpp:150] Setting up relu4_2
I0403 21:23:17.196422 13700 net.cpp:157] Top shape: 8 512 38 38 (5914624)
I0403 21:23:17.196426 13700 net.cpp:165] Memory required for data: 1627103296
I0403 21:23:17.196431 13700 layer_factory.hpp:77] Creating layer conv4_3
I0403 21:23:17.196444 13700 net.cpp:100] Creating Layer conv4_3
I0403 21:23:17.196449 13700 net.cpp:434] conv4_3 <- conv4_2
I0403 21:23:17.196456 13700 net.cpp:408] conv4_3 -> conv4_3
I0403 21:23:17.218894 13700 net.cpp:150] Setting up conv4_3
I0403 21:23:17.218919 13700 net.cpp:157] Top shape: 8 512 38 38 (5914624)
I0403 21:23:17.218924 13700 net.cpp:165] Memory required for data: 1650761792
I0403 21:23:17.218935 13700 layer_factory.hpp:77] Creating layer relu4_3
I0403 21:23:17.218945 13700 net.cpp:100] Creating Layer relu4_3
I0403 21:23:17.218950 13700 net.cpp:434] relu4_3 <- conv4_3
I0403 21:23:17.218960 13700 net.cpp:395] relu4_3 -> conv4_3 (in-place)
I0403 21:23:17.218969 13700 net.cpp:150] Setting up relu4_3
I0403 21:23:17.218976 13700 net.cpp:157] Top shape: 8 512 38 38 (5914624)
I0403 21:23:17.218979 13700 net.cpp:165] Memory required for data: 1674420288
I0403 21:23:17.218983 13700 layer_factory.hpp:77] Creating layer conv4_3_relu4_3_0_split
I0403 21:23:17.218991 13700 net.cpp:100] Creating Layer conv4_3_relu4_3_0_split
I0403 21:23:17.218996 13700 net.cpp:434] conv4_3_relu4_3_0_split <- conv4_3
I0403 21:23:17.219002 13700 net.cpp:408] conv4_3_relu4_3_0_split -> conv4_3_relu4_3_0_split_0
I0403 21:23:17.219010 13700 net.cpp:408] conv4_3_relu4_3_0_split -> conv4_3_relu4_3_0_split_1
I0403 21:23:17.219053 13700 net.cpp:150] Setting up conv4_3_relu4_3_0_split
I0403 21:23:17.219063 13700 net.cpp:157] Top shape: 8 512 38 38 (5914624)
I0403 21:23:17.219069 13700 net.cpp:157] Top shape: 8 512 38 38 (5914624)
I0403 21:23:17.219074 13700 net.cpp:165] Memory required for data: 1721737280
I0403 21:23:17.219077 13700 layer_factory.hpp:77] Creating layer pool4
I0403 21:23:17.219085 13700 net.cpp:100] Creating Layer pool4
I0403 21:23:17.219090 13700 net.cpp:434] pool4 <- conv4_3_relu4_3_0_split_0
I0403 21:23:17.219097 13700 net.cpp:408] pool4 -> pool4
I0403 21:23:17.219139 13700 net.cpp:150] Setting up pool4
I0403 21:23:17.219148 13700 net.cpp:157] Top shape: 8 512 19 19 (1478656)
I0403 21:23:17.219153 13700 net.cpp:165] Memory required for data: 1727651904
I0403 21:23:17.219157 13700 layer_factory.hpp:77] Creating layer conv5_1
I0403 21:23:17.219169 13700 net.cpp:100] Creating Layer conv5_1
I0403 21:23:17.219174 13700 net.cpp:434] conv5_1 <- pool4
I0403 21:23:17.219183 13700 net.cpp:408] conv5_1 -> conv5_1
I0403 21:23:17.241310 13700 net.cpp:150] Setting up conv5_1
I0403 21:23:17.241330 13700 net.cpp:157] Top shape: 8 512 19 19 (1478656)
I0403 21:23:17.241340 13700 net.cpp:165] Memory required for data: 1733566528
I0403 21:23:17.241349 13700 layer_factory.hpp:77] Creating layer relu5_1
I0403 21:23:17.241358 13700 net.cpp:100] Creating Layer relu5_1
I0403 21:23:17.241364 13700 net.cpp:434] relu5_1 <- conv5_1
I0403 21:23:17.241370 13700 net.cpp:395] relu5_1 -> conv5_1 (in-place)
I0403 21:23:17.241379 13700 net.cpp:150] Setting up relu5_1
I0403 21:23:17.241385 13700 net.cpp:157] Top shape: 8 512 19 19 (1478656)
I0403 21:23:17.241390 13700 net.cpp:165] Memory required for data: 1739481152
I0403 21:23:17.241394 13700 layer_factory.hpp:77] Creating layer conv5_2
I0403 21:23:17.241405 13700 net.cpp:100] Creating Layer conv5_2
I0403 21:23:17.241410 13700 net.cpp:434] conv5_2 <- conv5_1
I0403 21:23:17.241417 13700 net.cpp:408] conv5_2 -> conv5_2
I0403 21:23:17.263581 13700 net.cpp:150] Setting up conv5_2
I0403 21:23:17.263602 13700 net.cpp:157] Top shape: 8 512 19 19 (1478656)
I0403 21:23:17.263608 13700 net.cpp:165] Memory required for data: 1745395776
I0403 21:23:17.263618 13700 layer_factory.hpp:77] Creating layer relu5_2
I0403 21:23:17.263628 13700 net.cpp:100] Creating Layer relu5_2
I0403 21:23:17.263633 13700 net.cpp:434] relu5_2 <- conv5_2
I0403 21:23:17.263643 13700 net.cpp:395] relu5_2 -> conv5_2 (in-place)
I0403 21:23:17.263651 13700 net.cpp:150] Setting up relu5_2
I0403 21:23:17.263658 13700 net.cpp:157] Top shape: 8 512 19 19 (1478656)
I0403 21:23:17.263661 13700 net.cpp:165] Memory required for data: 1751310400
I0403 21:23:17.263666 13700 layer_factory.hpp:77] Creating layer conv5_3
I0403 21:23:17.263679 13700 net.cpp:100] Creating Layer conv5_3
I0403 21:23:17.263682 13700 net.cpp:434] conv5_3 <- conv5_2
I0403 21:23:17.263691 13700 net.cpp:408] conv5_3 -> conv5_3
I0403 21:23:17.285800 13700 net.cpp:150] Setting up conv5_3
I0403 21:23:17.285822 13700 net.cpp:157] Top shape: 8 512 19 19 (1478656)
I0403 21:23:17.285827 13700 net.cpp:165] Memory required for data: 1757225024
I0403 21:23:17.285836 13700 layer_factory.hpp:77] Creating layer relu5_3
I0403 21:23:17.285852 13700 net.cpp:100] Creating Layer relu5_3
I0403 21:23:17.285858 13700 net.cpp:434] relu5_3 <- conv5_3
I0403 21:23:17.285866 13700 net.cpp:395] relu5_3 -> conv5_3 (in-place)
I0403 21:23:17.285876 13700 net.cpp:150] Setting up relu5_3
I0403 21:23:17.285881 13700 net.cpp:157] Top shape: 8 512 19 19 (1478656)
I0403 21:23:17.285886 13700 net.cpp:165] Memory required for data: 1763139648
I0403 21:23:17.285890 13700 layer_factory.hpp:77] Creating layer pool5
I0403 21:23:17.285898 13700 net.cpp:100] Creating Layer pool5
I0403 21:23:17.285903 13700 net.cpp:434] pool5 <- conv5_3
I0403 21:23:17.285910 13700 net.cpp:408] pool5 -> pool5
I0403 21:23:17.285955 13700 net.cpp:150] Setting up pool5
I0403 21:23:17.285966 13700 net.cpp:157] Top shape: 8 512 19 19 (1478656)
I0403 21:23:17.285970 13700 net.cpp:165] Memory required for data: 1769054272
I0403 21:23:17.285975 13700 layer_factory.hpp:77] Creating layer fc6
I0403 21:23:17.285986 13700 net.cpp:100] Creating Layer fc6
I0403 21:23:17.285991 13700 net.cpp:434] fc6 <- pool5
I0403 21:23:17.286000 13700 net.cpp:408] fc6 -> fc6
I0403 21:23:17.330317 13700 net.cpp:150] Setting up fc6
I0403 21:23:17.330355 13700 net.cpp:157] Top shape: 8 1024 19 19 (2957312)
I0403 21:23:17.330361 13700 net.cpp:165] Memory required for data: 1780883520
I0403 21:23:17.330374 13700 layer_factory.hpp:77] Creating layer relu6
I0403 21:23:17.330385 13700 net.cpp:100] Creating Layer relu6
I0403 21:23:17.330391 13700 net.cpp:434] relu6 <- fc6
I0403 21:23:17.330402 13700 net.cpp:395] relu6 -> fc6 (in-place)
I0403 21:23:17.330413 13700 net.cpp:150] Setting up relu6
I0403 21:23:17.330420 13700 net.cpp:157] Top shape: 8 1024 19 19 (2957312)
I0403 21:23:17.330425 13700 net.cpp:165] Memory required for data: 1792712768
I0403 21:23:17.330430 13700 layer_factory.hpp:77] Creating layer fc7
I0403 21:23:17.330440 13700 net.cpp:100] Creating Layer fc7
I0403 21:23:17.330456 13700 net.cpp:434] fc7 <- fc6
I0403 21:23:17.330464 13700 net.cpp:408] fc7 -> fc7
I0403 21:23:17.340549 13700 net.cpp:150] Setting up fc7
I0403 21:23:17.340565 13700 net.cpp:157] Top shape: 8 1024 19 19 (2957312)
I0403 21:23:17.340570 13700 net.cpp:165] Memory required for data: 1804542016
I0403 21:23:17.340579 13700 layer_factory.hpp:77] Creating layer relu7
I0403 21:23:17.340586 13700 net.cpp:100] Creating Layer relu7
I0403 21:23:17.340592 13700 net.cpp:434] relu7 <- fc7
I0403 21:23:17.340600 13700 net.cpp:395] relu7 -> fc7 (in-place)
I0403 21:23:17.340607 13700 net.cpp:150] Setting up relu7
I0403 21:23:17.340613 13700 net.cpp:157] Top shape: 8 1024 19 19 (2957312)
I0403 21:23:17.340617 13700 net.cpp:165] Memory required for data: 1816371264
I0403 21:23:17.340621 13700 layer_factory.hpp:77] Creating layer fc7_relu7_0_split
I0403 21:23:17.340628 13700 net.cpp:100] Creating Layer fc7_relu7_0_split
I0403 21:23:17.340633 13700 net.cpp:434] fc7_relu7_0_split <- fc7
I0403 21:23:17.340641 13700 net.cpp:408] fc7_relu7_0_split -> fc7_relu7_0_split_0
I0403 21:23:17.340649 13700 net.cpp:408] fc7_relu7_0_split -> fc7_relu7_0_split_1
I0403 21:23:17.340663 13700 net.cpp:408] fc7_relu7_0_split -> fc7_relu7_0_split_2
I0403 21:23:17.340672 13700 net.cpp:408] fc7_relu7_0_split -> fc7_relu7_0_split_3
I0403 21:23:17.340740 13700 net.cpp:150] Setting up fc7_relu7_0_split
I0403 21:23:17.340752 13700 net.cpp:157] Top shape: 8 1024 19 19 (2957312)
I0403 21:23:17.340759 13700 net.cpp:157] Top shape: 8 1024 19 19 (2957312)
I0403 21:23:17.340764 13700 net.cpp:157] Top shape: 8 1024 19 19 (2957312)
I0403 21:23:17.340770 13700 net.cpp:157] Top shape: 8 1024 19 19 (2957312)
I0403 21:23:17.340773 13700 net.cpp:165] Memory required for data: 1863688256
I0403 21:23:17.340778 13700 layer_factory.hpp:77] Creating layer conv6_1
I0403 21:23:17.340790 13700 net.cpp:100] Creating Layer conv6_1
I0403 21:23:17.340795 13700 net.cpp:434] conv6_1 <- fc7_relu7_0_split_0
I0403 21:23:17.340806 13700 net.cpp:408] conv6_1 -> conv6_1
I0403 21:23:17.343513 13700 net.cpp:150] Setting up conv6_1
I0403 21:23:17.343528 13700 net.cpp:157] Top shape: 8 256 19 19 (739328)
I0403 21:23:17.343533 13700 net.cpp:165] Memory required for data: 1866645568
I0403 21:23:17.343541 13700 layer_factory.hpp:77] Creating layer conv6_1_relu
I0403 21:23:17.343549 13700 net.cpp:100] Creating Layer conv6_1_relu
I0403 21:23:17.343554 13700 net.cpp:434] conv6_1_relu <- conv6_1
I0403 21:23:17.343562 13700 net.cpp:395] conv6_1_relu -> conv6_1 (in-place)
I0403 21:23:17.343570 13700 net.cpp:150] Setting up conv6_1_relu
I0403 21:23:17.343576 13700 net.cpp:157] Top shape: 8 256 19 19 (739328)
I0403 21:23:17.343580 13700 net.cpp:165] Memory required for data: 1869602880
I0403 21:23:17.343585 13700 layer_factory.hpp:77] Creating layer conv6_2
I0403 21:23:17.343596 13700 net.cpp:100] Creating Layer conv6_2
I0403 21:23:17.343602 13700 net.cpp:434] conv6_2 <- conv6_1
I0403 21:23:17.343610 13700 net.cpp:408] conv6_2 -> conv6_2
I0403 21:23:17.355067 13700 net.cpp:150] Setting up conv6_2
I0403 21:23:17.355085 13700 net.cpp:157] Top shape: 8 512 10 10 (409600)
I0403 21:23:17.355090 13700 net.cpp:165] Memory required for data: 1871241280
I0403 21:23:17.355108 13700 layer_factory.hpp:77] Creating layer conv6_2_relu
I0403 21:23:17.355116 13700 net.cpp:100] Creating Layer conv6_2_relu
I0403 21:23:17.355123 13700 net.cpp:434] conv6_2_relu <- conv6_2
I0403 21:23:17.355130 13700 net.cpp:395] conv6_2_relu -> conv6_2 (in-place)
I0403 21:23:17.355139 13700 net.cpp:150] Setting up conv6_2_relu
I0403 21:23:17.355145 13700 net.cpp:157] Top shape: 8 512 10 10 (409600)
I0403 21:23:17.355149 13700 net.cpp:165] Memory required for data: 1872879680
I0403 21:23:17.355154 13700 layer_factory.hpp:77] Creating layer conv6_2_conv6_2_relu_0_split
I0403 21:23:17.355160 13700 net.cpp:100] Creating Layer conv6_2_conv6_2_relu_0_split
I0403 21:23:17.355165 13700 net.cpp:434] conv6_2_conv6_2_relu_0_split <- conv6_2
I0403 21:23:17.355171 13700 net.cpp:408] conv6_2_conv6_2_relu_0_split -> conv6_2_conv6_2_relu_0_split_0
I0403 21:23:17.355188 13700 net.cpp:408] conv6_2_conv6_2_relu_0_split -> conv6_2_conv6_2_relu_0_split_1
I0403 21:23:17.355197 13700 net.cpp:408] conv6_2_conv6_2_relu_0_split -> conv6_2_conv6_2_relu_0_split_2
I0403 21:23:17.355204 13700 net.cpp:408] conv6_2_conv6_2_relu_0_split -> conv6_2_conv6_2_relu_0_split_3
I0403 21:23:17.355278 13700 net.cpp:150] Setting up conv6_2_conv6_2_relu_0_split
I0403 21:23:17.355289 13700 net.cpp:157] Top shape: 8 512 10 10 (409600)
I0403 21:23:17.355294 13700 net.cpp:157] Top shape: 8 512 10 10 (409600)
I0403 21:23:17.355299 13700 net.cpp:157] Top shape: 8 512 10 10 (409600)
I0403 21:23:17.355304 13700 net.cpp:157] Top shape: 8 512 10 10 (409600)
I0403 21:23:17.355309 13700 net.cpp:165] Memory required for data: 1879433280
I0403 21:23:17.355314 13700 layer_factory.hpp:77] Creating layer conv7_1
I0403 21:23:17.355329 13700 net.cpp:100] Creating Layer conv7_1
I0403 21:23:17.355340 13700 net.cpp:434] conv7_1 <- conv6_2_conv6_2_relu_0_split_0
I0403 21:23:17.355352 13700 net.cpp:408] conv7_1 -> conv7_1
I0403 21:23:17.356637 13700 net.cpp:150] Setting up conv7_1
I0403 21:23:17.356652 13700 net.cpp:157] Top shape: 8 128 10 10 (102400)
I0403 21:23:17.356657 13700 net.cpp:165] Memory required for data: 1879842880
I0403 21:23:17.356664 13700 layer_factory.hpp:77] Creating layer conv7_1_relu
I0403 21:23:17.356673 13700 net.cpp:100] Creating Layer conv7_1_relu
I0403 21:23:17.356678 13700 net.cpp:434] conv7_1_relu <- conv7_1
I0403 21:23:17.356686 13700 net.cpp:395] conv7_1_relu -> conv7_1 (in-place)
I0403 21:23:17.356694 13700 net.cpp:150] Setting up conv7_1_relu
I0403 21:23:17.356700 13700 net.cpp:157] Top shape: 8 128 10 10 (102400)
I0403 21:23:17.356704 13700 net.cpp:165] Memory required for data: 1880252480
I0403 21:23:17.356709 13700 layer_factory.hpp:77] Creating layer conv7_2
I0403 21:23:17.356720 13700 net.cpp:100] Creating Layer conv7_2
I0403 21:23:17.356725 13700 net.cpp:434] conv7_2 <- conv7_1
I0403 21:23:17.356732 13700 net.cpp:408] conv7_2 -> conv7_2
I0403 21:23:17.359758 13700 net.cpp:150] Setting up conv7_2
I0403 21:23:17.359774 13700 net.cpp:157] Top shape: 8 256 5 5 (51200)
I0403 21:23:17.359779 13700 net.cpp:165] Memory required for data: 1880457280
I0403 21:23:17.359786 13700 layer_factory.hpp:77] Creating layer conv7_2_relu
I0403 21:23:17.359794 13700 net.cpp:100] Creating Layer conv7_2_relu
I0403 21:23:17.359799 13700 net.cpp:434] conv7_2_relu <- conv7_2
I0403 21:23:17.359808 13700 net.cpp:395] conv7_2_relu -> conv7_2 (in-place)
I0403 21:23:17.359817 13700 net.cpp:150] Setting up conv7_2_relu
I0403 21:23:17.359822 13700 net.cpp:157] Top shape: 8 256 5 5 (51200)
I0403 21:23:17.359827 13700 net.cpp:165] Memory required for data: 1880662080
I0403 21:23:17.359832 13700 layer_factory.hpp:77] Creating layer conv7_2_conv7_2_relu_0_split
I0403 21:23:17.359838 13700 net.cpp:100] Creating Layer conv7_2_conv7_2_relu_0_split
I0403 21:23:17.359843 13700 net.cpp:434] conv7_2_conv7_2_relu_0_split <- conv7_2
I0403 21:23:17.359848 13700 net.cpp:408] conv7_2_conv7_2_relu_0_split -> conv7_2_conv7_2_relu_0_split_0
I0403 21:23:17.359856 13700 net.cpp:408] conv7_2_conv7_2_relu_0_split -> conv7_2_conv7_2_relu_0_split_1
I0403 21:23:17.359865 13700 net.cpp:408] conv7_2_conv7_2_relu_0_split -> conv7_2_conv7_2_relu_0_split_2
I0403 21:23:17.359874 13700 net.cpp:408] conv7_2_conv7_2_relu_0_split -> conv7_2_conv7_2_relu_0_split_3
I0403 21:23:17.359947 13700 net.cpp:150] Setting up conv7_2_conv7_2_relu_0_split
I0403 21:23:17.359958 13700 net.cpp:157] Top shape: 8 256 5 5 (51200)
I0403 21:23:17.359964 13700 net.cpp:157] Top shape: 8 256 5 5 (51200)
I0403 21:23:17.359971 13700 net.cpp:157] Top shape: 8 256 5 5 (51200)
I0403 21:23:17.359975 13700 net.cpp:157] Top shape: 8 256 5 5 (51200)
I0403 21:23:17.359979 13700 net.cpp:165] Memory required for data: 1881481280
I0403 21:23:17.359983 13700 layer_factory.hpp:77] Creating layer conv8_1
I0403 21:23:17.359995 13700 net.cpp:100] Creating Layer conv8_1
I0403 21:23:17.360002 13700 net.cpp:434] conv8_1 <- conv7_2_conv7_2_relu_0_split_0
I0403 21:23:17.360011 13700 net.cpp:408] conv8_1 -> conv8_1
I0403 21:23:17.360507 13700 net.cpp:150] Setting up conv8_1
I0403 21:23:17.360522 13700 net.cpp:157] Top shape: 8 128 5 5 (25600)
I0403 21:23:17.360525 13700 net.cpp:165] Memory required for data: 1881583680
I0403 21:23:17.360533 13700 layer_factory.hpp:77] Creating layer conv8_1_relu
I0403 21:23:17.360543 13700 net.cpp:100] Creating Layer conv8_1_relu
I0403 21:23:17.360548 13700 net.cpp:434] conv8_1_relu <- conv8_1
I0403 21:23:17.360554 13700 net.cpp:395] conv8_1_relu -> conv8_1 (in-place)
I0403 21:23:17.360561 13700 net.cpp:150] Setting up conv8_1_relu
I0403 21:23:17.360568 13700 net.cpp:157] Top shape: 8 128 5 5 (25600)
I0403 21:23:17.360571 13700 net.cpp:165] Memory required for data: 1881686080
I0403 21:23:17.360575 13700 layer_factory.hpp:77] Creating layer conv8_2
I0403 21:23:17.360586 13700 net.cpp:100] Creating Layer conv8_2
I0403 21:23:17.360592 13700 net.cpp:434] conv8_2 <- conv8_1
I0403 21:23:17.360600 13700 net.cpp:408] conv8_2 -> conv8_2
I0403 21:23:17.363598 13700 net.cpp:150] Setting up conv8_2
I0403 21:23:17.363615 13700 net.cpp:157] Top shape: 8 256 3 3 (18432)
I0403 21:23:17.363620 13700 net.cpp:165] Memory required for data: 1881759808
I0403 21:23:17.363627 13700 layer_factory.hpp:77] Creating layer conv8_2_relu
I0403 21:23:17.363634 13700 net.cpp:100] Creating Layer conv8_2_relu
I0403 21:23:17.363641 13700 net.cpp:434] conv8_2_relu <- conv8_2
I0403 21:23:17.363648 13700 net.cpp:395] conv8_2_relu -> conv8_2 (in-place)
I0403 21:23:17.363656 13700 net.cpp:150] Setting up conv8_2_relu
I0403 21:23:17.363662 13700 net.cpp:157] Top shape: 8 256 3 3 (18432)
I0403 21:23:17.363667 13700 net.cpp:165] Memory required for data: 1881833536
I0403 21:23:17.363672 13700 layer_factory.hpp:77] Creating layer conv8_2_conv8_2_relu_0_split
I0403 21:23:17.363677 13700 net.cpp:100] Creating Layer conv8_2_conv8_2_relu_0_split
I0403 21:23:17.363682 13700 net.cpp:434] conv8_2_conv8_2_relu_0_split <- conv8_2
I0403 21:23:17.363690 13700 net.cpp:408] conv8_2_conv8_2_relu_0_split -> conv8_2_conv8_2_relu_0_split_0
I0403 21:23:17.363698 13700 net.cpp:408] conv8_2_conv8_2_relu_0_split -> conv8_2_conv8_2_relu_0_split_1
I0403 21:23:17.363706 13700 net.cpp:408] conv8_2_conv8_2_relu_0_split -> conv8_2_conv8_2_relu_0_split_2
I0403 21:23:17.363713 13700 net.cpp:408] conv8_2_conv8_2_relu_0_split -> conv8_2_conv8_2_relu_0_split_3
I0403 21:23:17.363785 13700 net.cpp:150] Setting up conv8_2_conv8_2_relu_0_split
I0403 21:23:17.363796 13700 net.cpp:157] Top shape: 8 256 3 3 (18432)
I0403 21:23:17.363802 13700 net.cpp:157] Top shape: 8 256 3 3 (18432)
I0403 21:23:17.363807 13700 net.cpp:157] Top shape: 8 256 3 3 (18432)
I0403 21:23:17.363812 13700 net.cpp:157] Top shape: 8 256 3 3 (18432)
I0403 21:23:17.363816 13700 net.cpp:165] Memory required for data: 1882128448
I0403 21:23:17.363821 13700 layer_factory.hpp:77] Creating layer conv9_1
I0403 21:23:17.363834 13700 net.cpp:100] Creating Layer conv9_1
I0403 21:23:17.363840 13700 net.cpp:434] conv9_1 <- conv8_2_conv8_2_relu_0_split_0
I0403 21:23:17.363849 13700 net.cpp:408] conv9_1 -> conv9_1
I0403 21:23:17.364353 13700 net.cpp:150] Setting up conv9_1
I0403 21:23:17.364367 13700 net.cpp:157] Top shape: 8 128 3 3 (9216)
I0403 21:23:17.364372 13700 net.cpp:165] Memory required for data: 1882165312
I0403 21:23:17.364379 13700 layer_factory.hpp:77] Creating layer conv9_1_relu
I0403 21:23:17.364387 13700 net.cpp:100] Creating Layer conv9_1_relu
I0403 21:23:17.364392 13700 net.cpp:434] conv9_1_relu <- conv9_1
I0403 21:23:17.364398 13700 net.cpp:395] conv9_1_relu -> conv9_1 (in-place)
I0403 21:23:17.364404 13700 net.cpp:150] Setting up conv9_1_relu
I0403 21:23:17.364410 13700 net.cpp:157] Top shape: 8 128 3 3 (9216)
I0403 21:23:17.364414 13700 net.cpp:165] Memory required for data: 1882202176
I0403 21:23:17.364418 13700 layer_factory.hpp:77] Creating layer conv9_2
I0403 21:23:17.364429 13700 net.cpp:100] Creating Layer conv9_2
I0403 21:23:17.364435 13700 net.cpp:434] conv9_2 <- conv9_1
I0403 21:23:17.364444 13700 net.cpp:408] conv9_2 -> conv9_2
I0403 21:23:17.367437 13700 net.cpp:150] Setting up conv9_2
I0403 21:23:17.367458 13700 net.cpp:157] Top shape: 8 256 1 1 (2048)
I0403 21:23:17.367463 13700 net.cpp:165] Memory required for data: 1882210368
I0403 21:23:17.367471 13700 layer_factory.hpp:77] Creating layer conv9_2_relu
I0403 21:23:17.367478 13700 net.cpp:100] Creating Layer conv9_2_relu
I0403 21:23:17.367485 13700 net.cpp:434] conv9_2_relu <- conv9_2
I0403 21:23:17.367492 13700 net.cpp:395] conv9_2_relu -> conv9_2 (in-place)
I0403 21:23:17.367501 13700 net.cpp:150] Setting up conv9_2_relu
I0403 21:23:17.367506 13700 net.cpp:157] Top shape: 8 256 1 1 (2048)
I0403 21:23:17.367511 13700 net.cpp:165] Memory required for data: 1882218560
I0403 21:23:17.367516 13700 layer_factory.hpp:77] Creating layer conv9_2_conv9_2_relu_0_split
I0403 21:23:17.367522 13700 net.cpp:100] Creating Layer conv9_2_conv9_2_relu_0_split
I0403 21:23:17.367525 13700 net.cpp:434] conv9_2_conv9_2_relu_0_split <- conv9_2
I0403 21:23:17.367533 13700 net.cpp:408] conv9_2_conv9_2_relu_0_split -> conv9_2_conv9_2_relu_0_split_0
I0403 21:23:17.367542 13700 net.cpp:408] conv9_2_conv9_2_relu_0_split -> conv9_2_conv9_2_relu_0_split_1
I0403 21:23:17.367549 13700 net.cpp:408] conv9_2_conv9_2_relu_0_split -> conv9_2_conv9_2_relu_0_split_2
I0403 21:23:17.367609 13700 net.cpp:150] Setting up conv9_2_conv9_2_relu_0_split
I0403 21:23:17.367619 13700 net.cpp:157] Top shape: 8 256 1 1 (2048)
I0403 21:23:17.367626 13700 net.cpp:157] Top shape: 8 256 1 1 (2048)
I0403 21:23:17.367632 13700 net.cpp:157] Top shape: 8 256 1 1 (2048)
I0403 21:23:17.367636 13700 net.cpp:165] Memory required for data: 1882243136
I0403 21:23:17.367640 13700 layer_factory.hpp:77] Creating layer conv4_3_norm
I0403 21:23:17.367648 13700 net.cpp:100] Creating Layer conv4_3_norm
I0403 21:23:17.367655 13700 net.cpp:434] conv4_3_norm <- conv4_3_relu4_3_0_split_1
I0403 21:23:17.367660 13700 net.cpp:408] conv4_3_norm -> conv4_3_norm
I0403 21:23:17.367831 13700 net.cpp:150] Setting up conv4_3_norm
I0403 21:23:17.367843 13700 net.cpp:157] Top shape: 8 512 38 38 (5914624)
I0403 21:23:17.367847 13700 net.cpp:165] Memory required for data: 1905901632
I0403 21:23:17.367854 13700 layer_factory.hpp:77] Creating layer conv4_3_norm_conv4_3_norm_0_split
I0403 21:23:17.367861 13700 net.cpp:100] Creating Layer conv4_3_norm_conv4_3_norm_0_split
I0403 21:23:17.367866 13700 net.cpp:434] conv4_3_norm_conv4_3_norm_0_split <- conv4_3_norm
I0403 21:23:17.367873 13700 net.cpp:408] conv4_3_norm_conv4_3_norm_0_split -> conv4_3_norm_conv4_3_norm_0_split_0
I0403 21:23:17.367880 13700 net.cpp:408] conv4_3_norm_conv4_3_norm_0_split -> conv4_3_norm_conv4_3_norm_0_split_1
I0403 21:23:17.367887 13700 net.cpp:408] conv4_3_norm_conv4_3_norm_0_split -> conv4_3_norm_conv4_3_norm_0_split_2
I0403 21:23:17.367941 13700 net.cpp:150] Setting up conv4_3_norm_conv4_3_norm_0_split
I0403 21:23:17.367952 13700 net.cpp:157] Top shape: 8 512 38 38 (5914624)
I0403 21:23:17.367957 13700 net.cpp:157] Top shape: 8 512 38 38 (5914624)
I0403 21:23:17.367962 13700 net.cpp:157] Top shape: 8 512 38 38 (5914624)
I0403 21:23:17.367966 13700 net.cpp:165] Memory required for data: 1976877120
I0403 21:23:17.367971 13700 layer_factory.hpp:77] Creating layer conv4_3_norm_mbox_loc
I0403 21:23:17.367981 13700 net.cpp:100] Creating Layer conv4_3_norm_mbox_loc
I0403 21:23:17.367986 13700 net.cpp:434] conv4_3_norm_mbox_loc <- conv4_3_norm_conv4_3_norm_0_split_0
I0403 21:23:17.367996 13700 net.cpp:408] conv4_3_norm_mbox_loc -> conv4_3_norm_mbox_loc
I0403 21:23:17.368852 13700 net.cpp:150] Setting up conv4_3_norm_mbox_loc
I0403 21:23:17.368867 13700 net.cpp:157] Top shape: 8 16 38 38 (184832)
I0403 21:23:17.368871 13700 net.cpp:165] Memory required for data: 1977616448
I0403 21:23:17.368880 13700 layer_factory.hpp:77] Creating layer conv4_3_norm_mbox_loc_perm
I0403 21:23:17.368887 13700 net.cpp:100] Creating Layer conv4_3_norm_mbox_loc_perm
I0403 21:23:17.368893 13700 net.cpp:434] conv4_3_norm_mbox_loc_perm <- conv4_3_norm_mbox_loc
I0403 21:23:17.368902 13700 net.cpp:408] conv4_3_norm_mbox_loc_perm -> conv4_3_norm_mbox_loc_perm
I0403 21:23:17.369022 13700 net.cpp:150] Setting up conv4_3_norm_mbox_loc_perm
I0403 21:23:17.369035 13700 net.cpp:157] Top shape: 8 38 38 16 (184832)
I0403 21:23:17.369040 13700 net.cpp:165] Memory required for data: 1978355776
I0403 21:23:17.369043 13700 layer_factory.hpp:77] Creating layer conv4_3_norm_mbox_loc_flat
I0403 21:23:17.369055 13700 net.cpp:100] Creating Layer conv4_3_norm_mbox_loc_flat
I0403 21:23:17.369060 13700 net.cpp:434] conv4_3_norm_mbox_loc_flat <- conv4_3_norm_mbox_loc_perm
I0403 21:23:17.369067 13700 net.cpp:408] conv4_3_norm_mbox_loc_flat -> conv4_3_norm_mbox_loc_flat
I0403 21:23:17.369107 13700 net.cpp:150] Setting up conv4_3_norm_mbox_loc_flat
I0403 21:23:17.369118 13700 net.cpp:157] Top shape: 8 23104 (184832)
I0403 21:23:17.369122 13700 net.cpp:165] Memory required for data: 1979095104
I0403 21:23:17.369127 13700 layer_factory.hpp:77] Creating layer conv4_3_norm_mbox_conf
I0403 21:23:17.369146 13700 net.cpp:100] Creating Layer conv4_3_norm_mbox_conf
I0403 21:23:17.369153 13700 net.cpp:434] conv4_3_norm_mbox_conf <- conv4_3_norm_conv4_3_norm_0_split_1
I0403 21:23:17.369160 13700 net.cpp:408] conv4_3_norm_mbox_conf -> conv4_3_norm_mbox_conf
I0403 21:23:17.373154 13700 net.cpp:150] Setting up conv4_3_norm_mbox_conf
I0403 21:23:17.373170 13700 net.cpp:157] Top shape: 8 84 38 38 (970368)
I0403 21:23:17.373175 13700 net.cpp:165] Memory required for data: 1982976576
I0403 21:23:17.373183 13700 layer_factory.hpp:77] Creating layer conv4_3_norm_mbox_conf_perm
I0403 21:23:17.373191 13700 net.cpp:100] Creating Layer conv4_3_norm_mbox_conf_perm
I0403 21:23:17.373196 13700 net.cpp:434] conv4_3_norm_mbox_conf_perm <- conv4_3_norm_mbox_conf
I0403 21:23:17.373206 13700 net.cpp:408] conv4_3_norm_mbox_conf_perm -> conv4_3_norm_mbox_conf_perm
I0403 21:23:17.373322 13700 net.cpp:150] Setting up conv4_3_norm_mbox_conf_perm
I0403 21:23:17.373337 13700 net.cpp:157] Top shape: 8 38 38 84 (970368)
I0403 21:23:17.373342 13700 net.cpp:165] Memory required for data: 1986858048
I0403 21:23:17.373347 13700 layer_factory.hpp:77] Creating layer conv4_3_norm_mbox_conf_flat
I0403 21:23:17.373354 13700 net.cpp:100] Creating Layer conv4_3_norm_mbox_conf_flat
I0403 21:23:17.373359 13700 net.cpp:434] conv4_3_norm_mbox_conf_flat <- conv4_3_norm_mbox_conf_perm
I0403 21:23:17.373366 13700 net.cpp:408] conv4_3_norm_mbox_conf_flat -> conv4_3_norm_mbox_conf_flat
I0403 21:23:17.373399 13700 net.cpp:150] Setting up conv4_3_norm_mbox_conf_flat
I0403 21:23:17.373409 13700 net.cpp:157] Top shape: 8 121296 (970368)
I0403 21:23:17.373414 13700 net.cpp:165] Memory required for data: 1990739520
I0403 21:23:17.373419 13700 layer_factory.hpp:77] Creating layer conv4_3_norm_mbox_priorbox
I0403 21:23:17.373430 13700 net.cpp:100] Creating Layer conv4_3_norm_mbox_priorbox
I0403 21:23:17.373435 13700 net.cpp:434] conv4_3_norm_mbox_priorbox <- conv4_3_norm_conv4_3_norm_0_split_2
I0403 21:23:17.373440 13700 net.cpp:434] conv4_3_norm_mbox_priorbox <- data_data_0_split_1
I0403 21:23:17.373447 13700 net.cpp:408] conv4_3_norm_mbox_priorbox -> conv4_3_norm_mbox_priorbox
I0403 21:23:17.373486 13700 net.cpp:150] Setting up conv4_3_norm_mbox_priorbox
I0403 21:23:17.373499 13700 net.cpp:157] Top shape: 1 2 23104 (46208)
I0403 21:23:17.373503 13700 net.cpp:165] Memory required for data: 1990924352
I0403 21:23:17.373508 13700 layer_factory.hpp:77] Creating layer fc7_mbox_loc
I0403 21:23:17.373522 13700 net.cpp:100] Creating Layer fc7_mbox_loc
I0403 21:23:17.373529 13700 net.cpp:434] fc7_mbox_loc <- fc7_relu7_0_split_1
I0403 21:23:17.373539 13700 net.cpp:408] fc7_mbox_loc -> fc7_mbox_loc
I0403 21:23:17.375977 13700 net.cpp:150] Setting up fc7_mbox_loc
I0403 21:23:17.375993 13700 net.cpp:157] Top shape: 8 24 19 19 (69312)
I0403 21:23:17.375998 13700 net.cpp:165] Memory required for data: 1991201600
I0403 21:23:17.376006 13700 layer_factory.hpp:77] Creating layer fc7_mbox_loc_perm
I0403 21:23:17.376016 13700 net.cpp:100] Creating Layer fc7_mbox_loc_perm
I0403 21:23:17.376024 13700 net.cpp:434] fc7_mbox_loc_perm <- fc7_mbox_loc
I0403 21:23:17.376034 13700 net.cpp:408] fc7_mbox_loc_perm -> fc7_mbox_loc_perm
I0403 21:23:17.376154 13700 net.cpp:150] Setting up fc7_mbox_loc_perm
I0403 21:23:17.376166 13700 net.cpp:157] Top shape: 8 19 19 24 (69312)
I0403 21:23:17.376171 13700 net.cpp:165] Memory required for data: 1991478848
I0403 21:23:17.376175 13700 layer_factory.hpp:77] Creating layer fc7_mbox_loc_flat
I0403 21:23:17.376184 13700 net.cpp:100] Creating Layer fc7_mbox_loc_flat
I0403 21:23:17.376189 13700 net.cpp:434] fc7_mbox_loc_flat <- fc7_mbox_loc_perm
I0403 21:23:17.376196 13700 net.cpp:408] fc7_mbox_loc_flat -> fc7_mbox_loc_flat
I0403 21:23:17.376226 13700 net.cpp:150] Setting up fc7_mbox_loc_flat
I0403 21:23:17.376237 13700 net.cpp:157] Top shape: 8 8664 (69312)
I0403 21:23:17.376241 13700 net.cpp:165] Memory required for data: 1991756096
I0403 21:23:17.376246 13700 layer_factory.hpp:77] Creating layer fc7_mbox_conf
I0403 21:23:17.376258 13700 net.cpp:100] Creating Layer fc7_mbox_conf
I0403 21:23:17.376263 13700 net.cpp:434] fc7_mbox_conf <- fc7_relu7_0_split_2
I0403 21:23:17.376277 13700 net.cpp:408] fc7_mbox_conf -> fc7_mbox_conf
I0403 21:23:17.387424 13700 net.cpp:150] Setting up fc7_mbox_conf
I0403 21:23:17.387442 13700 net.cpp:157] Top shape: 8 126 19 19 (363888)
I0403 21:23:17.387447 13700 net.cpp:165] Memory required for data: 1993211648
I0403 21:23:17.387455 13700 layer_factory.hpp:77] Creating layer fc7_mbox_conf_perm
I0403 21:23:17.387465 13700 net.cpp:100] Creating Layer fc7_mbox_conf_perm
I0403 21:23:17.387471 13700 net.cpp:434] fc7_mbox_conf_perm <- fc7_mbox_conf
I0403 21:23:17.387480 13700 net.cpp:408] fc7_mbox_conf_perm -> fc7_mbox_conf_perm
I0403 21:23:17.387596 13700 net.cpp:150] Setting up fc7_mbox_conf_perm
I0403 21:23:17.387607 13700 net.cpp:157] Top shape: 8 19 19 126 (363888)
I0403 21:23:17.387612 13700 net.cpp:165] Memory required for data: 1994667200
I0403 21:23:17.387617 13700 layer_factory.hpp:77] Creating layer fc7_mbox_conf_flat
I0403 21:23:17.387626 13700 net.cpp:100] Creating Layer fc7_mbox_conf_flat
I0403 21:23:17.387631 13700 net.cpp:434] fc7_mbox_conf_flat <- fc7_mbox_conf_perm
I0403 21:23:17.387639 13700 net.cpp:408] fc7_mbox_conf_flat -> fc7_mbox_conf_flat
I0403 21:23:17.387670 13700 net.cpp:150] Setting up fc7_mbox_conf_flat
I0403 21:23:17.387681 13700 net.cpp:157] Top shape: 8 45486 (363888)
I0403 21:23:17.387684 13700 net.cpp:165] Memory required for data: 1996122752
I0403 21:23:17.387689 13700 layer_factory.hpp:77] Creating layer fc7_mbox_priorbox
I0403 21:23:17.387697 13700 net.cpp:100] Creating Layer fc7_mbox_priorbox
I0403 21:23:17.387702 13700 net.cpp:434] fc7_mbox_priorbox <- fc7_relu7_0_split_3
I0403 21:23:17.387708 13700 net.cpp:434] fc7_mbox_priorbox <- data_data_0_split_2
I0403 21:23:17.387717 13700 net.cpp:408] fc7_mbox_priorbox -> fc7_mbox_priorbox
I0403 21:23:17.387748 13700 net.cpp:150] Setting up fc7_mbox_priorbox
I0403 21:23:17.387761 13700 net.cpp:157] Top shape: 1 2 8664 (17328)
I0403 21:23:17.387765 13700 net.cpp:165] Memory required for data: 1996192064
I0403 21:23:17.387770 13700 layer_factory.hpp:77] Creating layer conv6_2_mbox_loc
I0403 21:23:17.387782 13700 net.cpp:100] Creating Layer conv6_2_mbox_loc
I0403 21:23:17.387789 13700 net.cpp:434] conv6_2_mbox_loc <- conv6_2_conv6_2_relu_0_split_1
I0403 21:23:17.387796 13700 net.cpp:408] conv6_2_mbox_loc -> conv6_2_mbox_loc
I0403 21:23:17.389489 13700 net.cpp:150] Setting up conv6_2_mbox_loc
I0403 21:23:17.389505 13700 net.cpp:157] Top shape: 8 24 10 10 (19200)
I0403 21:23:17.389510 13700 net.cpp:165] Memory required for data: 1996268864
I0403 21:23:17.389518 13700 layer_factory.hpp:77] Creating layer conv6_2_mbox_loc_perm
I0403 21:23:17.389528 13700 net.cpp:100] Creating Layer conv6_2_mbox_loc_perm
I0403 21:23:17.389534 13700 net.cpp:434] conv6_2_mbox_loc_perm <- conv6_2_mbox_loc
I0403 21:23:17.389541 13700 net.cpp:408] conv6_2_mbox_loc_perm -> conv6_2_mbox_loc_perm
I0403 21:23:17.389658 13700 net.cpp:150] Setting up conv6_2_mbox_loc_perm
I0403 21:23:17.389670 13700 net.cpp:157] Top shape: 8 10 10 24 (19200)
I0403 21:23:17.389674 13700 net.cpp:165] Memory required for data: 1996345664
I0403 21:23:17.389685 13700 layer_factory.hpp:77] Creating layer conv6_2_mbox_loc_flat
I0403 21:23:17.389693 13700 net.cpp:100] Creating Layer conv6_2_mbox_loc_flat
I0403 21:23:17.389700 13700 net.cpp:434] conv6_2_mbox_loc_flat <- conv6_2_mbox_loc_perm
I0403 21:23:17.389708 13700 net.cpp:408] conv6_2_mbox_loc_flat -> conv6_2_mbox_loc_flat
I0403 21:23:17.389739 13700 net.cpp:150] Setting up conv6_2_mbox_loc_flat
I0403 21:23:17.389750 13700 net.cpp:157] Top shape: 8 2400 (19200)
I0403 21:23:17.389755 13700 net.cpp:165] Memory required for data: 1996422464
I0403 21:23:17.389760 13700 layer_factory.hpp:77] Creating layer conv6_2_mbox_conf
I0403 21:23:17.389771 13700 net.cpp:100] Creating Layer conv6_2_mbox_conf
I0403 21:23:17.389777 13700 net.cpp:434] conv6_2_mbox_conf <- conv6_2_conv6_2_relu_0_split_2
I0403 21:23:17.389786 13700 net.cpp:408] conv6_2_mbox_conf -> conv6_2_mbox_conf
I0403 21:23:17.395597 13700 net.cpp:150] Setting up conv6_2_mbox_conf
I0403 21:23:17.395613 13700 net.cpp:157] Top shape: 8 126 10 10 (100800)
I0403 21:23:17.395618 13700 net.cpp:165] Memory required for data: 1996825664
I0403 21:23:17.395627 13700 layer_factory.hpp:77] Creating layer conv6_2_mbox_conf_perm
I0403 21:23:17.395637 13700 net.cpp:100] Creating Layer conv6_2_mbox_conf_perm
I0403 21:23:17.395642 13700 net.cpp:434] conv6_2_mbox_conf_perm <- conv6_2_mbox_conf
I0403 21:23:17.395649 13700 net.cpp:408] conv6_2_mbox_conf_perm -> conv6_2_mbox_conf_perm
I0403 21:23:17.395768 13700 net.cpp:150] Setting up conv6_2_mbox_conf_perm
I0403 21:23:17.395781 13700 net.cpp:157] Top shape: 8 10 10 126 (100800)
I0403 21:23:17.395784 13700 net.cpp:165] Memory required for data: 1997228864
I0403 21:23:17.395789 13700 layer_factory.hpp:77] Creating layer conv6_2_mbox_conf_flat
I0403 21:23:17.395795 13700 net.cpp:100] Creating Layer conv6_2_mbox_conf_flat
I0403 21:23:17.395802 13700 net.cpp:434] conv6_2_mbox_conf_flat <- conv6_2_mbox_conf_perm
I0403 21:23:17.395810 13700 net.cpp:408] conv6_2_mbox_conf_flat -> conv6_2_mbox_conf_flat
I0403 21:23:17.395839 13700 net.cpp:150] Setting up conv6_2_mbox_conf_flat
I0403 21:23:17.395853 13700 net.cpp:157] Top shape: 8 12600 (100800)
I0403 21:23:17.395858 13700 net.cpp:165] Memory required for data: 1997632064
I0403 21:23:17.395861 13700 layer_factory.hpp:77] Creating layer conv6_2_mbox_priorbox
I0403 21:23:17.395869 13700 net.cpp:100] Creating Layer conv6_2_mbox_priorbox
I0403 21:23:17.395874 13700 net.cpp:434] conv6_2_mbox_priorbox <- conv6_2_conv6_2_relu_0_split_3
I0403 21:23:17.395881 13700 net.cpp:434] conv6_2_mbox_priorbox <- data_data_0_split_3
I0403 21:23:17.395890 13700 net.cpp:408] conv6_2_mbox_priorbox -> conv6_2_mbox_priorbox
I0403 21:23:17.395921 13700 net.cpp:150] Setting up conv6_2_mbox_priorbox
I0403 21:23:17.395933 13700 net.cpp:157] Top shape: 1 2 2400 (4800)
I0403 21:23:17.395937 13700 net.cpp:165] Memory required for data: 1997651264
I0403 21:23:17.395942 13700 layer_factory.hpp:77] Creating layer conv7_2_mbox_loc
I0403 21:23:17.395956 13700 net.cpp:100] Creating Layer conv7_2_mbox_loc
I0403 21:23:17.395962 13700 net.cpp:434] conv7_2_mbox_loc <- conv7_2_conv7_2_relu_0_split_1
I0403 21:23:17.395970 13700 net.cpp:408] conv7_2_mbox_loc -> conv7_2_mbox_loc
I0403 21:23:17.396680 13700 net.cpp:150] Setting up conv7_2_mbox_loc
I0403 21:23:17.396694 13700 net.cpp:157] Top shape: 8 24 5 5 (4800)
I0403 21:23:17.396699 13700 net.cpp:165] Memory required for data: 1997670464
I0403 21:23:17.396708 13700 layer_factory.hpp:77] Creating layer conv7_2_mbox_loc_perm
I0403 21:23:17.396739 13700 net.cpp:100] Creating Layer conv7_2_mbox_loc_perm
I0403 21:23:17.396744 13700 net.cpp:434] conv7_2_mbox_loc_perm <- conv7_2_mbox_loc
I0403 21:23:17.396751 13700 net.cpp:408] conv7_2_mbox_loc_perm -> conv7_2_mbox_loc_perm
I0403 21:23:17.396890 13700 net.cpp:150] Setting up conv7_2_mbox_loc_perm
I0403 21:23:17.396903 13700 net.cpp:157] Top shape: 8 5 5 24 (4800)
I0403 21:23:17.396908 13700 net.cpp:165] Memory required for data: 1997689664
I0403 21:23:17.396911 13700 layer_factory.hpp:77] Creating layer conv7_2_mbox_loc_flat
I0403 21:23:17.396925 13700 net.cpp:100] Creating Layer conv7_2_mbox_loc_flat
I0403 21:23:17.396930 13700 net.cpp:434] conv7_2_mbox_loc_flat <- conv7_2_mbox_loc_perm
I0403 21:23:17.396939 13700 net.cpp:408] conv7_2_mbox_loc_flat -> conv7_2_mbox_loc_flat
I0403 21:23:17.396973 13700 net.cpp:150] Setting up conv7_2_mbox_loc_flat
I0403 21:23:17.396984 13700 net.cpp:157] Top shape: 8 600 (4800)
I0403 21:23:17.396988 13700 net.cpp:165] Memory required for data: 1997708864
I0403 21:23:17.396993 13700 layer_factory.hpp:77] Creating layer conv7_2_mbox_conf
I0403 21:23:17.397012 13700 net.cpp:100] Creating Layer conv7_2_mbox_conf
I0403 21:23:17.397017 13700 net.cpp:434] conv7_2_mbox_conf <- conv7_2_conv7_2_relu_0_split_2
I0403 21:23:17.397025 13700 net.cpp:408] conv7_2_mbox_conf -> conv7_2_mbox_conf
I0403 21:23:17.400035 13700 net.cpp:150] Setting up conv7_2_mbox_conf
I0403 21:23:17.400051 13700 net.cpp:157] Top shape: 8 126 5 5 (25200)
I0403 21:23:17.400056 13700 net.cpp:165] Memory required for data: 1997809664
I0403 21:23:17.400064 13700 layer_factory.hpp:77] Creating layer conv7_2_mbox_conf_perm
I0403 21:23:17.400074 13700 net.cpp:100] Creating Layer conv7_2_mbox_conf_perm
I0403 21:23:17.400080 13700 net.cpp:434] conv7_2_mbox_conf_perm <- conv7_2_mbox_conf
I0403 21:23:17.400087 13700 net.cpp:408] conv7_2_mbox_conf_perm -> conv7_2_mbox_conf_perm
I0403 21:23:17.400203 13700 net.cpp:150] Setting up conv7_2_mbox_conf_perm
I0403 21:23:17.400215 13700 net.cpp:157] Top shape: 8 5 5 126 (25200)
I0403 21:23:17.400219 13700 net.cpp:165] Memory required for data: 1997910464
I0403 21:23:17.400224 13700 layer_factory.hpp:77] Creating layer conv7_2_mbox_conf_flat
I0403 21:23:17.400231 13700 net.cpp:100] Creating Layer conv7_2_mbox_conf_flat
I0403 21:23:17.400236 13700 net.cpp:434] conv7_2_mbox_conf_flat <- conv7_2_mbox_conf_perm
I0403 21:23:17.400244 13700 net.cpp:408] conv7_2_mbox_conf_flat -> conv7_2_mbox_conf_flat
I0403 21:23:17.400274 13700 net.cpp:150] Setting up conv7_2_mbox_conf_flat
I0403 21:23:17.400287 13700 net.cpp:157] Top shape: 8 3150 (25200)
I0403 21:23:17.400292 13700 net.cpp:165] Memory required for data: 1998011264
I0403 21:23:17.400296 13700 layer_factory.hpp:77] Creating layer conv7_2_mbox_priorbox
I0403 21:23:17.400303 13700 net.cpp:100] Creating Layer conv7_2_mbox_priorbox
I0403 21:23:17.400308 13700 net.cpp:434] conv7_2_mbox_priorbox <- conv7_2_conv7_2_relu_0_split_3
I0403 21:23:17.400315 13700 net.cpp:434] conv7_2_mbox_priorbox <- data_data_0_split_4
I0403 21:23:17.400323 13700 net.cpp:408] conv7_2_mbox_priorbox -> conv7_2_mbox_priorbox
I0403 21:23:17.400360 13700 net.cpp:150] Setting up conv7_2_mbox_priorbox
I0403 21:23:17.400377 13700 net.cpp:157] Top shape: 1 2 600 (1200)
I0403 21:23:17.400382 13700 net.cpp:165] Memory required for data: 1998016064
I0403 21:23:17.400387 13700 layer_factory.hpp:77] Creating layer conv8_2_mbox_loc
I0403 21:23:17.400395 13700 net.cpp:100] Creating Layer conv8_2_mbox_loc
I0403 21:23:17.400401 13700 net.cpp:434] conv8_2_mbox_loc <- conv8_2_conv8_2_relu_0_split_1
I0403 21:23:17.400413 13700 net.cpp:408] conv8_2_mbox_loc -> conv8_2_mbox_loc
I0403 21:23:17.400966 13700 net.cpp:150] Setting up conv8_2_mbox_loc
I0403 21:23:17.400979 13700 net.cpp:157] Top shape: 8 16 3 3 (1152)
I0403 21:23:17.400985 13700 net.cpp:165] Memory required for data: 1998020672
I0403 21:23:17.401005 13700 layer_factory.hpp:77] Creating layer conv8_2_mbox_loc_perm
I0403 21:23:17.401015 13700 net.cpp:100] Creating Layer conv8_2_mbox_loc_perm
I0403 21:23:17.401021 13700 net.cpp:434] conv8_2_mbox_loc_perm <- conv8_2_mbox_loc
I0403 21:23:17.401028 13700 net.cpp:408] conv8_2_mbox_loc_perm -> conv8_2_mbox_loc_perm
I0403 21:23:17.401149 13700 net.cpp:150] Setting up conv8_2_mbox_loc_perm
I0403 21:23:17.401161 13700 net.cpp:157] Top shape: 8 3 3 16 (1152)
I0403 21:23:17.401165 13700 net.cpp:165] Memory required for data: 1998025280
I0403 21:23:17.401170 13700 layer_factory.hpp:77] Creating layer conv8_2_mbox_loc_flat
I0403 21:23:17.401178 13700 net.cpp:100] Creating Layer conv8_2_mbox_loc_flat
I0403 21:23:17.401185 13700 net.cpp:434] conv8_2_mbox_loc_flat <- conv8_2_mbox_loc_perm
I0403 21:23:17.401197 13700 net.cpp:408] conv8_2_mbox_loc_flat -> conv8_2_mbox_loc_flat
I0403 21:23:17.401230 13700 net.cpp:150] Setting up conv8_2_mbox_loc_flat
I0403 21:23:17.401240 13700 net.cpp:157] Top shape: 8 144 (1152)
I0403 21:23:17.401244 13700 net.cpp:165] Memory required for data: 1998029888
I0403 21:23:17.401249 13700 layer_factory.hpp:77] Creating layer conv8_2_mbox_conf
I0403 21:23:17.401260 13700 net.cpp:100] Creating Layer conv8_2_mbox_conf
I0403 21:23:17.401266 13700 net.cpp:434] conv8_2_mbox_conf <- conv8_2_conv8_2_relu_0_split_2
I0403 21:23:17.401276 13700 net.cpp:408] conv8_2_mbox_conf -> conv8_2_mbox_conf
I0403 21:23:17.403515 13700 net.cpp:150] Setting up conv8_2_mbox_conf
I0403 21:23:17.403532 13700 net.cpp:157] Top shape: 8 84 3 3 (6048)
I0403 21:23:17.403537 13700 net.cpp:165] Memory required for data: 1998054080
I0403 21:23:17.403544 13700 layer_factory.hpp:77] Creating layer conv8_2_mbox_conf_perm
I0403 21:23:17.403553 13700 net.cpp:100] Creating Layer conv8_2_mbox_conf_perm
I0403 21:23:17.403558 13700 net.cpp:434] conv8_2_mbox_conf_perm <- conv8_2_mbox_conf
I0403 21:23:17.403568 13700 net.cpp:408] conv8_2_mbox_conf_perm -> conv8_2_mbox_conf_perm
I0403 21:23:17.403688 13700 net.cpp:150] Setting up conv8_2_mbox_conf_perm
I0403 21:23:17.403702 13700 net.cpp:157] Top shape: 8 3 3 84 (6048)
I0403 21:23:17.403707 13700 net.cpp:165] Memory required for data: 1998078272
I0403 21:23:17.403712 13700 layer_factory.hpp:77] Creating layer conv8_2_mbox_conf_flat
I0403 21:23:17.403718 13700 net.cpp:100] Creating Layer conv8_2_mbox_conf_flat
I0403 21:23:17.403723 13700 net.cpp:434] conv8_2_mbox_conf_flat <- conv8_2_mbox_conf_perm
I0403 21:23:17.403730 13700 net.cpp:408] conv8_2_mbox_conf_flat -> conv8_2_mbox_conf_flat
I0403 21:23:17.403762 13700 net.cpp:150] Setting up conv8_2_mbox_conf_flat
I0403 21:23:17.403772 13700 net.cpp:157] Top shape: 8 756 (6048)
I0403 21:23:17.403777 13700 net.cpp:165] Memory required for data: 1998102464
I0403 21:23:17.403781 13700 layer_factory.hpp:77] Creating layer conv8_2_mbox_priorbox
I0403 21:23:17.403791 13700 net.cpp:100] Creating Layer conv8_2_mbox_priorbox
I0403 21:23:17.403796 13700 net.cpp:434] conv8_2_mbox_priorbox <- conv8_2_conv8_2_relu_0_split_3
I0403 21:23:17.403803 13700 net.cpp:434] conv8_2_mbox_priorbox <- data_data_0_split_5
I0403 21:23:17.403810 13700 net.cpp:408] conv8_2_mbox_priorbox -> conv8_2_mbox_priorbox
I0403 21:23:17.403846 13700 net.cpp:150] Setting up conv8_2_mbox_priorbox
I0403 21:23:17.403856 13700 net.cpp:157] Top shape: 1 2 144 (288)
I0403 21:23:17.403861 13700 net.cpp:165] Memory required for data: 1998103616
I0403 21:23:17.403864 13700 layer_factory.hpp:77] Creating layer conv9_2_mbox_loc
I0403 21:23:17.403877 13700 net.cpp:100] Creating Layer conv9_2_mbox_loc
I0403 21:23:17.403882 13700 net.cpp:434] conv9_2_mbox_loc <- conv9_2_conv9_2_relu_0_split_0
I0403 21:23:17.403892 13700 net.cpp:408] conv9_2_mbox_loc -> conv9_2_mbox_loc
I0403 21:23:17.404451 13700 net.cpp:150] Setting up conv9_2_mbox_loc
I0403 21:23:17.404465 13700 net.cpp:157] Top shape: 8 16 1 1 (128)
I0403 21:23:17.404469 13700 net.cpp:165] Memory required for data: 1998104128
I0403 21:23:17.404477 13700 layer_factory.hpp:77] Creating layer conv9_2_mbox_loc_perm
I0403 21:23:17.404487 13700 net.cpp:100] Creating Layer conv9_2_mbox_loc_perm
I0403 21:23:17.404492 13700 net.cpp:434] conv9_2_mbox_loc_perm <- conv9_2_mbox_loc
I0403 21:23:17.404500 13700 net.cpp:408] conv9_2_mbox_loc_perm -> conv9_2_mbox_loc_perm
I0403 21:23:17.404615 13700 net.cpp:150] Setting up conv9_2_mbox_loc_perm
I0403 21:23:17.404628 13700 net.cpp:157] Top shape: 8 1 1 16 (128)
I0403 21:23:17.404631 13700 net.cpp:165] Memory required for data: 1998104640
I0403 21:23:17.404636 13700 layer_factory.hpp:77] Creating layer conv9_2_mbox_loc_flat
I0403 21:23:17.404645 13700 net.cpp:100] Creating Layer conv9_2_mbox_loc_flat
I0403 21:23:17.404650 13700 net.cpp:434] conv9_2_mbox_loc_flat <- conv9_2_mbox_loc_perm
I0403 21:23:17.404657 13700 net.cpp:408] conv9_2_mbox_loc_flat -> conv9_2_mbox_loc_flat
I0403 21:23:17.404695 13700 net.cpp:150] Setting up conv9_2_mbox_loc_flat
I0403 21:23:17.404703 13700 net.cpp:157] Top shape: 8 16 (128)
I0403 21:23:17.404708 13700 net.cpp:165] Memory required for data: 1998105152
I0403 21:23:17.404713 13700 layer_factory.hpp:77] Creating layer conv9_2_mbox_conf
I0403 21:23:17.404724 13700 net.cpp:100] Creating Layer conv9_2_mbox_conf
I0403 21:23:17.404731 13700 net.cpp:434] conv9_2_mbox_conf <- conv9_2_conv9_2_relu_0_split_1
I0403 21:23:17.404741 13700 net.cpp:408] conv9_2_mbox_conf -> conv9_2_mbox_conf
I0403 21:23:17.406987 13700 net.cpp:150] Setting up conv9_2_mbox_conf
I0403 21:23:17.407002 13700 net.cpp:157] Top shape: 8 84 1 1 (672)
I0403 21:23:17.407007 13700 net.cpp:165] Memory required for data: 1998107840
I0403 21:23:17.407016 13700 layer_factory.hpp:77] Creating layer conv9_2_mbox_conf_perm
I0403 21:23:17.407025 13700 net.cpp:100] Creating Layer conv9_2_mbox_conf_perm
I0403 21:23:17.407032 13700 net.cpp:434] conv9_2_mbox_conf_perm <- conv9_2_mbox_conf
I0403 21:23:17.407038 13700 net.cpp:408] conv9_2_mbox_conf_perm -> conv9_2_mbox_conf_perm
I0403 21:23:17.407156 13700 net.cpp:150] Setting up conv9_2_mbox_conf_perm
I0403 21:23:17.407168 13700 net.cpp:157] Top shape: 8 1 1 84 (672)
I0403 21:23:17.407172 13700 net.cpp:165] Memory required for data: 1998110528
I0403 21:23:17.407177 13700 layer_factory.hpp:77] Creating layer conv9_2_mbox_conf_flat
I0403 21:23:17.407186 13700 net.cpp:100] Creating Layer conv9_2_mbox_conf_flat
I0403 21:23:17.407191 13700 net.cpp:434] conv9_2_mbox_conf_flat <- conv9_2_mbox_conf_perm
I0403 21:23:17.407197 13700 net.cpp:408] conv9_2_mbox_conf_flat -> conv9_2_mbox_conf_flat
I0403 21:23:17.407229 13700 net.cpp:150] Setting up conv9_2_mbox_conf_flat
I0403 21:23:17.407239 13700 net.cpp:157] Top shape: 8 84 (672)
I0403 21:23:17.407243 13700 net.cpp:165] Memory required for data: 1998113216
I0403 21:23:17.407248 13700 layer_factory.hpp:77] Creating layer conv9_2_mbox_priorbox
I0403 21:23:17.407255 13700 net.cpp:100] Creating Layer conv9_2_mbox_priorbox
I0403 21:23:17.407260 13700 net.cpp:434] conv9_2_mbox_priorbox <- conv9_2_conv9_2_relu_0_split_2
I0403 21:23:17.407266 13700 net.cpp:434] conv9_2_mbox_priorbox <- data_data_0_split_6
I0403 21:23:17.407275 13700 net.cpp:408] conv9_2_mbox_priorbox -> conv9_2_mbox_priorbox
I0403 21:23:17.407307 13700 net.cpp:150] Setting up conv9_2_mbox_priorbox
I0403 21:23:17.407320 13700 net.cpp:157] Top shape: 1 2 16 (32)
I0403 21:23:17.407325 13700 net.cpp:165] Memory required for data: 1998113344
I0403 21:23:17.407330 13700 layer_factory.hpp:77] Creating layer mbox_loc
I0403 21:23:17.407343 13700 net.cpp:100] Creating Layer mbox_loc
I0403 21:23:17.407349 13700 net.cpp:434] mbox_loc <- conv4_3_norm_mbox_loc_flat
I0403 21:23:17.407356 13700 net.cpp:434] mbox_loc <- fc7_mbox_loc_flat
I0403 21:23:17.407362 13700 net.cpp:434] mbox_loc <- conv6_2_mbox_loc_flat
I0403 21:23:17.407367 13700 net.cpp:434] mbox_loc <- conv7_2_mbox_loc_flat
I0403 21:23:17.407373 13700 net.cpp:434] mbox_loc <- conv8_2_mbox_loc_flat
I0403 21:23:17.407378 13700 net.cpp:434] mbox_loc <- conv9_2_mbox_loc_flat
I0403 21:23:17.407387 13700 net.cpp:408] mbox_loc -> mbox_loc
I0403 21:23:17.407419 13700 net.cpp:150] Setting up mbox_loc
I0403 21:23:17.407430 13700 net.cpp:157] Top shape: 8 34928 (279424)
I0403 21:23:17.407435 13700 net.cpp:165] Memory required for data: 1999231040
I0403 21:23:17.407439 13700 layer_factory.hpp:77] Creating layer mbox_conf
I0403 21:23:17.407449 13700 net.cpp:100] Creating Layer mbox_conf
I0403 21:23:17.407454 13700 net.cpp:434] mbox_conf <- conv4_3_norm_mbox_conf_flat
I0403 21:23:17.407461 13700 net.cpp:434] mbox_conf <- fc7_mbox_conf_flat
I0403 21:23:17.407466 13700 net.cpp:434] mbox_conf <- conv6_2_mbox_conf_flat
I0403 21:23:17.407472 13700 net.cpp:434] mbox_conf <- conv7_2_mbox_conf_flat
I0403 21:23:17.407477 13700 net.cpp:434] mbox_conf <- conv8_2_mbox_conf_flat
I0403 21:23:17.407482 13700 net.cpp:434] mbox_conf <- conv9_2_mbox_conf_flat
I0403 21:23:17.407488 13700 net.cpp:408] mbox_conf -> mbox_conf
I0403 21:23:17.407524 13700 net.cpp:150] Setting up mbox_conf
I0403 21:23:17.407536 13700 net.cpp:157] Top shape: 8 183372 (1466976)
I0403 21:23:17.407541 13700 net.cpp:165] Memory required for data: 2005098944
I0403 21:23:17.407546 13700 layer_factory.hpp:77] Creating layer mbox_priorbox
I0403 21:23:17.407552 13700 net.cpp:100] Creating Layer mbox_priorbox
I0403 21:23:17.407557 13700 net.cpp:434] mbox_priorbox <- conv4_3_norm_mbox_priorbox
I0403 21:23:17.407563 13700 net.cpp:434] mbox_priorbox <- fc7_mbox_priorbox
I0403 21:23:17.407568 13700 net.cpp:434] mbox_priorbox <- conv6_2_mbox_priorbox
I0403 21:23:17.407573 13700 net.cpp:434] mbox_priorbox <- conv7_2_mbox_priorbox
I0403 21:23:17.407579 13700 net.cpp:434] mbox_priorbox <- conv8_2_mbox_priorbox
I0403 21:23:17.407584 13700 net.cpp:434] mbox_priorbox <- conv9_2_mbox_priorbox
I0403 21:23:17.407593 13700 net.cpp:408] mbox_priorbox -> mbox_priorbox
I0403 21:23:17.407622 13700 net.cpp:150] Setting up mbox_priorbox
I0403 21:23:17.407632 13700 net.cpp:157] Top shape: 1 2 34928 (69856)
I0403 21:23:17.407637 13700 net.cpp:165] Memory required for data: 2005378368
I0403 21:23:17.407641 13700 layer_factory.hpp:77] Creating layer mbox_conf_reshape
I0403 21:23:17.407706 13700 net.cpp:100] Creating Layer mbox_conf_reshape
I0403 21:23:17.407717 13700 net.cpp:434] mbox_conf_reshape <- mbox_conf
I0403 21:23:17.407727 13700 net.cpp:408] mbox_conf_reshape -> mbox_conf_reshape
I0403 21:23:17.407796 13700 net.cpp:150] Setting up mbox_conf_reshape
I0403 21:23:17.407812 13700 net.cpp:157] Top shape: 8 8732 21 (1466976)
I0403 21:23:17.407817 13700 net.cpp:165] Memory required for data: 2011246272
I0403 21:23:17.407822 13700 layer_factory.hpp:77] Creating layer mbox_conf_softmax
I0403 21:23:17.407830 13700 net.cpp:100] Creating Layer mbox_conf_softmax
I0403 21:23:17.407835 13700 net.cpp:434] mbox_conf_softmax <- mbox_conf_reshape
I0403 21:23:17.407842 13700 net.cpp:408] mbox_conf_softmax -> mbox_conf_softmax
I0403 21:23:17.407922 13700 net.cpp:150] Setting up mbox_conf_softmax
I0403 21:23:17.407933 13700 net.cpp:157] Top shape: 8 8732 21 (1466976)
I0403 21:23:17.407938 13700 net.cpp:165] Memory required for data: 2017114176
I0403 21:23:17.407943 13700 layer_factory.hpp:77] Creating layer mbox_conf_flatten
I0403 21:23:17.407948 13700 net.cpp:100] Creating Layer mbox_conf_flatten
I0403 21:23:17.407953 13700 net.cpp:434] mbox_conf_flatten <- mbox_conf_softmax
I0403 21:23:17.407959 13700 net.cpp:408] mbox_conf_flatten -> mbox_conf_flatten
I0403 21:23:17.407991 13700 net.cpp:150] Setting up mbox_conf_flatten
I0403 21:23:17.408001 13700 net.cpp:157] Top shape: 8 183372 (1466976)
I0403 21:23:17.408005 13700 net.cpp:165] Memory required for data: 2022982080
I0403 21:23:17.408010 13700 layer_factory.hpp:77] Creating layer detection_out
I0403 21:23:17.408540 13700 net.cpp:100] Creating Layer detection_out
I0403 21:23:17.408552 13700 net.cpp:434] detection_out <- mbox_loc
I0403 21:23:17.408560 13700 net.cpp:434] detection_out <- mbox_conf_flatten
I0403 21:23:17.408565 13700 net.cpp:434] detection_out <- mbox_priorbox
I0403 21:23:17.408573 13700 net.cpp:408] detection_out -> detection_out
W0403 21:23:17.410923 13700 detection_output_layer.cpp:49] Failed to create directory: /home/itlab_sparse_mini/data/VOCdevkit/results/VOC2007/SSD_300x300/Main
I0403 21:23:17.533556 13700 net.cpp:150] Setting up detection_out
I0403 21:23:17.533589 13700 net.cpp:157] Top shape: 1 1 1 7 (7)
I0403 21:23:17.533596 13700 net.cpp:165] Memory required for data: 2022982108
I0403 21:23:17.533601 13700 layer_factory.hpp:77] Creating layer detection_eval
I0403 21:23:17.534276 13700 net.cpp:100] Creating Layer detection_eval
I0403 21:23:17.534289 13700 net.cpp:434] detection_eval <- detection_out
I0403 21:23:17.534308 13700 net.cpp:434] detection_eval <- label
I0403 21:23:17.534317 13700 net.cpp:408] detection_eval -> detection_eval
I0403 21:23:17.537606 13700 net.cpp:150] Setting up detection_eval
I0403 21:23:17.537623 13700 net.cpp:157] Top shape: 1 1 21 5 (105)
I0403 21:23:17.537641 13700 net.cpp:165] Memory required for data: 2022982528
I0403 21:23:17.537653 13700 net.cpp:228] detection_eval does not need backward computation.
I0403 21:23:17.537659 13700 net.cpp:228] detection_out does not need backward computation.
I0403 21:23:17.537665 13700 net.cpp:228] mbox_conf_flatten does not need backward computation.
I0403 21:23:17.537669 13700 net.cpp:228] mbox_conf_softmax does not need backward computation.
…
